benchmark/models/LSTM_checkpoint.pt (torch, 218565 bytes, 9 tensors)

lstm.weight_ih_l0 f4 [256, 13]
00000000: a4a8 0b3e 261a 923d b2fb 33bc 57e0 cbbd
00000010: f569 58be 1eee 133e 0bb9 aa3d 88c7 2fbe
00000020: ccfa bbbd 5c71 bb3b 133e a63e f88c dc3e
00000030: 6e12 8fbe 8bd3 bcbe 116a fc3c b552 dc3b
00000040: 29fe 8cbd 6d30 a9bc 7174 ecbe 3614 ce3d
00000050: 0398 b4be 5fdb f0be 4b2b e5bc b859 c63d
00000060: bd0f af3e 5ce6 83bc 92de 65be eb44 8dbe
00000070: b977 01bf a6e9 db3e 2d11 083f 3d7b 0bbf
00000080: 3456 04bf b83f 70bd f1d1 b9be a9a6 3d3d
00000090: 4655 e23e 0c90 5d3f bdf8 78be 78a4 e7bc
000000a0: bfc1 873d 653f 81be f704 fabc 13d2 19be
000000b0: 1e7c 10bf a4e7 68be e8d8 233e 7ba2 12bd
000000c0: 94ab bd3d cbbb 48be aa6b afbd e6d3 2c3d
000000d0: 10b6 b63c 0f5d 903c fafe c1be ceb3 9c3e
000000e0: 9505 d43b fc82 86be fe81 c9be c8ea 33be
000000f0: 5c0a c5be 2e00 173e 3bca 043f 499f e93e
00000100: f937 1e3e c0cc 89be 47aa 1bbe c50e d23c
00000110: 6d36 46be cc28 4ebe 1716 e8be 0c7e 0dbe
00000120: 8031 283e d28f e6be 9a3c 96be 4568 633e
00000130: 2416 ba3e 4760 6bbe 517a 9f3e 9ddf 113e
00000140: 858b 9abd 79c9 fcbc 27bb 433d 4f29 453a
00000150: 0b21 043d fd7f 84be 7c7b 90bc b4c8 9ebe
00000160: 9bbb 913d af35 c83d 1410 163e 0abb 5fbe
00000170: f480 b1bd b4e8 913e 09bc 4fbd e286 983e
00000180: 1e9e 1ebd fa77 193e 59cf c3bc 856e 63be
00000190: 6c40 eb3d 017a 0bbe b5fc ed3c 06e0 b3be
000001a0: a777 06bd 67fd 3abf 4f24 1f3c b8f0 afbd
000001b0: 7f24 3d3e 6e58 893b 905e 0e3e 8e98 ddbd
000001c0: 0991 b9bc d660 8c3e c77d b43e 8127 c43e
000001d0: 17be 87be cefb 273f 3289 0f3e cffd 373e
000001e0: a45d ab3d 6fa7 5ebe 858e 0c3d 7cac 0a3e
000001f0: 3ce2 2a3e 2069 cf3e 711d 723e 9d6b 8f3e
00000200: ea56 b43e 3582 5bbd b53a f3be e125 9cbe
00000210: 2a4f 653e cde1 b4bd 9a9b 0a3e 161e c63d
00000220: 9cc8 0d3e 9302 793e 68ce 86be b126 9a3e
00000230: 5fe5 aebc 6743 8f3d c73e 373e cd21 193d
00000240: cd5f 91be 0c3d b1bd a82e 513f 31b3 1a3f
00000250: 80e6 cdbe b824 e8bd 7dda 81be 9b20 17be
00000260: 185c a43d 130b af3d 996a 233e 39ce 3c3d
00000270: dfb1 943e e082 9f3e c195 a03d 4c12 023e
00000280: 872d 493e 9550 203e c0bd e5bc 9c46 b83d
00000290: dabd fe3d b5db 55be 0262 67be 41e4 39be
000002a0: 18f4 ae3e bde3 7fbe 405b a53d 5880 a1bd
000002b0: 8b34 9a3c c6ca a83d c199 35bc 50f9 833d
000002c0: 98a0 f13d f9e3 3ebe 5065 29be 3ed8 b6be
000002d0: 7a2a f7be 44b0 023e cea6 513d 20b9 06bf
000002e0: 382f 113e 9ff7 993e bbe9 72bd fad0 9b3d
000002f0: ad8c 273e 3826 e03d 5374 51be e707 93bd
00000300: a01d 073e 970e c3bc 32d2 70bc 1af7 fdbe
00000310: 40ab 6fbe 9f17 04be b7f8 6f3e 4409 9d3e
00000320: 0de1 b43c d6dd 44be b2ee d7be 802c 27bf
00000330: cf9f f3be 7c8b 93be 8848 133f f72d e2be
00000340: fe73 1bbd 9609 33be 7514 c0bd 1542 dfbd
00000350: a20e cd3d 587d cf3d 0c2d 04be f1f7 123d
00000360: 748a e9bd 14cc 773e 41fa c2be 936c 2a3f
00000370: d5cf 30bd f8a0 6fbf a37e 98bd 0f70 0b3d
00000380: 9750 1cbe 2cdc e4bd 4bcc 21bc 385f b63d
00000390: 9be7 613e 1903 99be 0766 25be 284a 84bd
000003a0: e641 cebb dae1 5cbe 9401 52be 6643 80be
000003b0: 6b4a 36be 862b c7bd fac4 c5be 1937 05bf
000003c0: d3e7 18be fc5c e53d a197 f4bd 2524 833e
000003d0: 88ff b8bd 9922 adbc e531 e3bd 7eea 30be
000003e0: 6d9c 8a3e 6770 73bb 71ed d93d 4f0e 27be
000003f0: b0fa 47be 037f 1e3d 29f7 97bb 9a2a f73d
0.1363855 0.07133894 -0.010985302 -0.09954899 -0.2113417 0.14446303 0.083360754 -0.17165959
-0.09178695 0.0057203006 0.32469234 0.430763 -0.27943748 -0.36880144 0.030812295 0.0067237266
-0.06884415 -0.020652974 -0.46182588 0.10062449 -0.35272226 -0.47042367 -0.027974745 0.09685081
0.34191695 -0.016101055 -0.22448185 -0.27591643 -0.5057331 0.42951697 0.5315121 -0.5448492
-0.51694036 -0.058654517 -0.36292985 0.046301518 0.44205683 0.86547923 -0.24313636 -0.028276667
0.06628751 -0.2524368 -0.030519946 -0.15021543 -0.5643939 -0.22744614 0.16000712 -0.035799485
0.092612416 -0.19602887 -0.08565457 0.04219427 0.022303611 0.017622499 -0.37889844 0.3060593
0.006470392 -0.26271808 -0.3935699 -0.1757003 -0.38484466 0.14746162 0.5187108 0.45629337
0.1545104 -0.26914024 -0.15201674 0.025641808 -0.193567 -0.2013275 -0.45329353 -0.13817614
0.16425133 -0.450316 -0.2934311 0.22207744 0.36345017 -0.22985946 0.31148008 0.14245458
-0.075461425 -0.030857788 0.047785904 0.0007521109 0.032258075 -0.25878897 -0.017637007 -0.310125
0.07115861 0.09775864 0.14654571 -0.21848693 -0.08667174 0.2849785 -0.050716434 0.29790407
-0.03872501 0.14987174 -0.023902582 -0.22210129 0.11486897 -0.1362076 0.029051164 -0.35131854
-0.032828953 -0.7304291 0.0097132465 -0.08590835 0.18470953 0.00419145 0.1390326 -0.10820113
-0.022652166 0.2741763 0.3525221 0.3831139 -0.26512215 0.656186 0.1401718 0.17967914
0.0836747 -0.21743558 0.034315605 0.1354236 0.16687864 0.40509892 0.23644044 0.2801179
0.3522256 -0.053590972 -0.47505727 -0.3049765 0.2239348 -0.088321306 0.1353592 0.09673707
0.13846058 0.24317388 -0.2632935 0.30107644 -0.021349607 0.06995278 0.17895041 0.03738575
-0.28393403 -0.08654222 0.81711817 0.60429674 -0.4021492 -0.113351285 -0.25362006 -0.14758532
0.08025378 0.08547034 0.15958633 0.046095107 0.29041955 0.31154537 0.07841063 0.12702292
0.19646274 0.1565574 -0.028044581 0.08997843 0.12438555 -0.20884593 -0.22595981 -0.18153478
0.34170604 -0.24989219 0.08074045 -0.07885808 0.018823883 0.08241801 -0.011084021 0.06444037
0.11798209 -0.18641652 -0.16542554 -0.35711855 -0.48274595 0.12762552 0.051184468 -0.5262623
0.14178169 0.30071732 -0.059304934 0.076082185 0.16362257 0.1094479 -0.2045453 -0.071792416
0.13194895 -0.023810668 -0.014698552 -0.49602586 -0.2340517 -0.12899636 0.23434721 0.30671132
0.022079969 -0.19225249 -0.42174298 -0.65302277 -0.47582862 -0.28817356 0.5753255 -0.44175693
-0.037952416 -0.17484125 -0.09378902 -0.10901276 0.100125566 0.10131329 -0.12907809 0.035880987
-0.11403361 0.24198943 -0.38081554 0.6657192 -0.043166954 -0.93604994 -0.07446029 0.034042414
-0.15265118 -0.11174807 -0.009875367 0.0890488 0.22061007 -0.29885176 -0.16152202 -0.06459457
-0.006294477 -0.2157053 -0.20508415 -0.2505142 -0.17801826 -0.09725098 -0.38626844 -0.520372
-0.14932184 0.11199376 -0.119429834 0.25613514 -0.09033114 -0.021134662 -0.11093501 -0.17276952
0.27072468 -0.0037145854 0.106409915 -0.16314052 -0.19529223 0.038695347 -0.004637618 0.120686725

lstm.weight_hh_l0 f4 [256, 64]
00000000: 8d74 223e f7de 81be 370c 6dbe b129 5b3e
00000010: 5e47 cbbd fd9f 753d 3d84 913d 014b 53be
00000020: d27c 5dbe 5489 d9be 2e6c 823d a8d3 9fbe
00000030: df44 01be 7686 8abc e3d5 563e 2674 07bf
00000040: 18eb 0a3f 22e6 b73e 6286 9c3e 9bac 67be
00000050: fff5 003f 3a05 183f d37f e33e 2358 eb3d
00000060: 7d32 e03d bdea 9a3e af4b bbbd e1ec 0c3f
00000070: 4114 b23e ba96 053e ebd4 76bc e784 0e3f
00000080: 927c 54be b37d 76be b2dd 7bbe cfd2 d9be
00000090: 6c0b 20bd 7328 12bf 6404 413f ac6e 4d3d
000000a0: b5cc 8dbd 9115 56be f2ad fd3e fdd5 803e
000000b0: ef0e 6abd 4c80 253d 8ecd 6e3e e1a3 7fbe
000000c0: 5df0 cfbe bdc4 babc 2aab 7abd 99f2 c73e
000000d0: cfd8 15bc ae8c 573e d7b7 e2be 533e 903d
000000e0: 7ce3 153e 02b4 5c3e 4004 043e 2a94 2ebd
000000f0: 1bbc 1bbe 08b0 49bc 4574 b7bd 13b1 06bf
00000100: b1b7 b23e cd98 ba3e 0671 4f3e e750 363e
00000110: 22c9 f43d 574e aa3e 6df7 773e e71d 0abe
00000120: 7360 fdbe dba1 d23d dba0 f7be 7bc9 08bf
00000130: 2b7a 78be cc62 4a3e e562 923d 65ea b2bd
00000140: b93c 863e e4a0 ac3c ec23 40bd 4612 8bbe
00000150: bc19 1fbe 853d 403d b037 383f 0584 363d
00000160: 64d9 d73d bede 883e 85c2 a2bd 1ab4 633e
00000170: 5706 713e 3b82 e53e e316 413d 8b46 06be
00000180: 6d17 163e 1917 6fbe b081 9abd e26b 1c3e
00000190: e420 68be 476a a1be 1454 1fbe ddda 9f3e
000001a0: 6021 6e3e 30eb fdbe dbf0 093c eba8 9a3e
000001b0: edd3 cabd a46a 4bbe 8f39 4cbc a9e8 20be
000001c0: 4071 8b3d 9fb8 713e 9d4f e2bc 4a49 3bbe
000001d0: d6d1 5cbb a605 25be 5d8f 703d 08cb 17bf
000001e0: 992f 573e c60c a33e e86d 933e 3e6c 753e
000001f0: f104 773d e639 3dbd 4bbe c0bc f085 8ebe
00000200: 3b33 483f 3021 f73d 4b4e a6be 17cd 713e
00000210: a06c 763e 098c c3bd a2c1 663c 58c9 883e
00000220: 09b6 753e b344 a3be c0d7 863f c600 293d
00000230: ddc4 e43e 3589 efbd 195a e8be 83d2 02be
00000240: 4d04 f3bd 77f6 ca3d e268 eebe 99cd 1bbe
00000250: a255 7ebe 3288 8d3c aa04 49be 2150 243d
00000260: b06f 493e ae2a a63e a744 793e d0b3 d73e
00000270: d9f0 bdbe 1604 ac3e 9b80 43bd e19b e2bc
00000280: 2ed0 333e 7e09 ecbe 2c0b a73b 3c7c f8bd
00000290: e4e5 d13d 03bd 7bbd a4eb 1e3f 6470 f83c
000002a0: 49c7 8cbe 6e2d 91be a0c7 593b 7929 bdbb
000002b0: 8e28 80be 811a 85be 059c 073e 42a7 c03e
000002c0: 6475 d7be ef5a 1b3f 9584 1abe 2eb4 33be
000002d0: 47bd 163f 65ca 1c3e b3d0 0fbd 8050 853e
000002e0: 7ab3 20be a037 4e3e f4e5 11be f887 ae3e
000002f0: ebfc 343f d2bd 663f d3c8 bb3e 5446 183f
00000300: c2c7 3abd 3920 cebe eb6e 213f b90d aa3b
00000310: 32c0 b73e f855 773e feff a83d 8c34 093f
00000320: d7fe 92be 808b a23d 7262 eb3e e348 7bbe
00000330: f888 02be fbcb ee3e e77f 203f 8040 0d3f
00000340: b2d3 5c3d 62ad 1a3e 6538 c9be 19dd 083e
00000350: 7f08 b43e 5f53 fdbd 85a6 17bf 6069 443c
00000360: eb3f 11be d5d7 cc3e 04b6 803d beec 20be
00000370: e169 1c3e 3f34 643e 784f e1be 8c0a d3bc
00000380: 2d91 2b3d 0d57 b9be 42fd 823d 4dfa c7be
00000390: 3148 813f 6389 61bd 52eb 8bbd bf68 bfbe
000003a0: 852a d03e 1d2d 25be a928 5a3f a1b6 633e
000003b0: 3315 d6be 4a5f 06bd 04d2 d5bc a3f2 bc3e
000003c0: 611a babd 701a 38be 93d7 253f e4d1 0cbc
000003d0: 415b 4b3f c1b4 cc3e 2d58 39be c263 93bc
000003e0: 62b4 633e ce97 813d e03b e0be 1407 6b3e
000003f0: 510c 3a3d dbb7 2abe 6146 bcbe c404 e4be
0.15864773 -0.2536542 -0.23149191 0.21402623 -0.099257216 0.05996703 0.071053006 -0.2063408
-0.21629646 -0.42487586 0.0636829 -0.31216168 -0.12623928 -0.01690982 0.20980029 -0.52911603
0.54264975 0.35917765 0.30571276 -0.22624438 0.5037536 0.59382975 0.4443346 0.1149142
0.1094713 0.30257216 -0.09145295 0.5504895 0.34781078 0.13045779 -0.015065412 0.5567154
-0.20750645 -0.24071388 -0.24596289 -0.42543647 -0.039073393 -0.5709297 0.75397325 0.050154373
-0.069238104 -0.20906664 0.49546772 0.2516326 -0.057143148 0.040405557 0.233206 -0.24964859
-0.4061307 -0.02279889 -0.06119839 0.39052275 -0.0091459295 0.21049759 -0.44280884 0.070431374
0.1463756 0.21553043 0.12892246 -0.04262177 -0.15208475 -0.0123100355 -0.089577235 -0.52613944
0.3490577 0.36444703 0.20257959 0.178043 0.119524255 0.33262894 0.24215479 -0.1348797
-0.49487647 0.10284778 -0.4836491 -0.53432435 -0.24265353 0.1976425 0.07147769 -0.087361135
0.26218203 0.021072812 -0.046909258 -0.2716238 -0.1553716 0.04693367 0.7195997 0.044559497
0.10539511 0.2673244 -0.07947258 0.22236672 0.23537575 0.4482592 0.047140967 -0.13112848
0.14657374 -0.23348655 -0.07544267 0.15275529 -0.22668797 -0.31526396 -0.15559417 0.31221667
0.23254919 -0.49593496 0.008419241 0.30207 -0.09903703 -0.19864899 -0.012464895 -0.15713753
0.0680871 0.23605584 -0.027625853 -0.18289676 -0.0033694408 -0.16115436 0.058730472 -0.59294176
0.21014251 0.31845683 0.2879479 0.23967072 0.060307447 -0.046197794 -0.023528239 -0.2783656
0.7820317 0.12066877 -0.32481608 0.23613392 0.24064875 -0.09548194 0.014084252 0.26716113
0.23995222 -0.3188835 1.0534592 0.041260503 0.44681445 -0.11696092 -0.4538124 -0.12775616
-0.11866055 0.09910291 -0.46564394 -0.15215148 -0.24837354 0.017276857 -0.19630685 0.04011548
0.19671512 0.32454437 0.24342595 0.42129374 -0.37097815 0.33596867 -0.04773007 -0.02766222
0.17559883 -0.46100992 0.0050977673 -0.12133071 0.10248926 -0.061459552 0.6207831 0.03032703
-0.27495793 -0.28354973 0.0033230558 -0.005772766 -0.2503094 -0.25996783 0.1324311 0.37627608
-0.4208175 0.6068563 -0.15089639 -0.17549202 0.58882564 0.15311582 -0.03511114 0.2603798
-0.15693465 0.20138407 -0.14247876 0.3408811 0.7069842 0.9013339 0.36676654 0.5948231
-0.04560066 -0.4025896 0.6305987 0.005189624 0.3588882 0.24153888 0.08251952 0.53595805
-0.28710052 0.07936764 0.45973545 -0.24539523 -0.12747562 0.4664 0.62695163 0.55176544
0.053912826 0.15105203 -0.39300838 0.13365592 0.35162732 -0.123694174 -0.59238464 0.011988014
-0.14184539 0.40008417 0.06284717 -0.1571531 0.15274765 0.22285555 -0.44005942 -0.025761865
0.041886497 -0.36199227 0.06395961 -0.39058152 1.0100156 -0.055062663 -0.06831993 -0.37384602
0.4065744 -0.1613049 0.8521829 0.22237636 -0.4181305 -0.03280572 -0.02610112 0.36903867
-0.090870626 -0.17978835 0.64782065 -0.008594964 0.7943612 0.39981654 -0.18100043 -0.017991904
0.2223678 0.063277826 -0.4379568 0.22951919 0.045421902 -0.16671698 -0.36772445 -0.44534886

lstm.bias_ih_l0 f4 [256]
00000000: 02e4 3d3c 5267 9fbd 1670 873c 3f6a 233e
00000010: 8b51 36bd 7913 55be 820b d0bd a480 f5bd
00000020: f59c 35bd c448 10bd fb60 cfbb 95f8 97be
00000030: a59c 54bd 540f 363e e5fe da3d 82e8 e4bd
00000040: cc71 233d 18fc 663d 21ac 293d d927 683d
00000050: c4c1 bf3d 8c04 243e 2dd7 ac3c de06 913e
00000060: b666 a6be 974b d43d 4231 e3be c3ab 133e
00000070: 8fc2 95be 55e3 7fbc dbc7 ae3d 4c30 ffbd
00000080: f002 cfbd 28a1 203d 1c69 a93e 0a52 a5bd
00000090: c5f6 38bd 72a0 833d 749d f73d 474c 0fbe
000000a0: 4826 d9bd 87d3 1f3e 8ab8 9f3d 0d33 ba3d
000000b0: c7fb 8a3e db67 00bb b2e4 863e 7d77 963e
000000c0: 8669 dc3e 09ab 2dbe 8fc3 453d a49c 883e
000000d0: c40d 923c a2a0 f53d d9d5 0d3e a732 8d3c
000000e0: 553a 7b3e 7de7 5fbe 70cb aa3d 8068 6f3d
000000f0: 0365 e9bc 7a70 09be f5b0 87be 7e6f 283e
00000100: d9d4 393e 812a b73d 4d98 94bb cd93 eebc
00000110: 665c 33bd a421 27bb 5dbc 093e ffed a83d
00000120: 4a55 373e 56f4 5ebd 9861 963d c057 8d3d
00000130: e893 5bba 200e 0b3b df6a 7f3e 36f7 833d
00000140: dbdc dabd 8725 a13d 53f7 753c 0299 e7bc
00000150: 3570 9a3d eb4d 093e 7349 9d3c 772f a63e
00000160: 2d0c 16be 143a 883e cbc4 e63c 7437 943e
00000170: 80f9 563e 2fb3 693d fa24 163e 9c59 753e
00000180: 2708 bb3d bb43 3abc a48b a3bc e429 053e
00000190: 121b ecbd 27e5 513a 78fd 8d3d 4e11 c13d
000001a0: 24d8 8abd bfca 353e 1c59 dc3d 6148 3c3e
000001b0: 1271 283e d62b a33e 8724 e5bd 46f0 d53d
000001c0: 4961 86ba 135d a63d f0a7 32bd b6e0 e13d
000001d0: 224b fcbb 46ae a23e 6031 713e f9f6 6a3e
000001e0: 470f 183e c02b 643e fd15 043e 9ba2 7e3b
000001f0: 8c48 123d 10c0 173d d8a7 7f3d f1a2 763e
00000200: 480a 113e 39f9 823d 9e3c 803e 6eb4 2b3d
00000210: 5341 3fbe 797c 793d b984 723d ff90 b1bd
00000220: 7a9a 873d ebf6 7a3c d108 f2bd 6931 c6bd
00000230: 8a7c 183c 9e24 dd3c a975 a33d 9f67 753c
00000240: d382 e33d 697f 20bc 3be3 88bd 3460 ae3d
00000250: f918 603b 41ca 3ebd 8b4b 353e e229 f83c
00000260: 7d97 cfbd cdda 38bc 268a d3bd 2146 c03d
00000270: fb9d 133d d099 2e3d ee89 a03d ff0e be3d
00000280: b15e 15bd f834 08be 3480 143e 44e4 52be
00000290: 87e9 023d eed5 6dbd a18e 1dbe dba7 cebd
000002a0: 578f d23d 3235 e2bb 4812 3d3d d577 a93d
000002b0: 6f78 163d 8e36 023d d12b bebd 6019 d93d
000002c0: 7ce3 ee3d c55e cd3c 2b4d ca3c 9a77 fb3c
000002d0: 01a4 a73d 2642 86bc 762c 50bd 82f0 f0bd
000002e0: de6b 983b 42c3 ddbd 5007 52bd 1b30 61bc
000002f0: df9b 5c3d 9f89 92bd e2ad 723d 4281 c53d
00000300: c07a 1a3e 3c10 80bd c76f af3e a7b0 d33e
00000310: 2e9e c03b 6dd2 473d 5a80 bcbd d7ba a8bd
00000320: 1041 df3d ca6c 8e3c 9a8a aebd 7304 853e
00000330: 9a51 7fbe 0dc2 7c3e 18ae 763e f9a7 a13d
00000340: 48f7 1b3e cb16 7d3e 3009 a73e c634 463e
00000350: 3883 ba3e 55bb 9d3e 8d9c 583e 54e4 b53e
00000360: 87b6 353e f7f3 043e 5b80 a4bd 7a1c 803e
00000370: 7c5c 423d 22ba 173e a07a ec3b 4fd5 ae3e
00000380: 1a1e e13d 9df7 62bd 5570 4d3e fefc 663d
00000390: 8672 ffbc cb44 e1bc f231 07be 1047 b4bd
000003a0: 87c2 2b3e f614 c43d 4a08 af3e 8b57 c83d
000003b0: 5125 343e bee5 0b3f 06b8 693e 782a 3b3e
000003c0: d693 713e 0d9f 4e3e e9cb 8a3e 4b3b 243e
000003d0: 5719 25be 8c6a a63e f7f4 ab3e 8c46 b23e
000003e0: b11f 8f3e d372 273e ae18 943e d4ea ee3d
000003f0: 2faa 5b3d ff44 4e3d 9beb 043e 5b98 c93e
0.011590006 -0.07783379 0.016532939 0.15958498 -0.04451136 -0.2080821 -0.10158445 -0.11987427
-0.04433914 -0.035225645 -0.0063286996 -0.2968184 -0.0519072 0.17779285 0.106931485 -0.1117716
0.039903447 0.05639276 0.04142392 0.056678627 0.0936313 0.1601736 0.021098698 0.28325552
-0.32500237 0.1036598 -0.44373518 0.1442099 -0.2925 -0.015618165 0.08534213 -0.12460384
-0.10107982 0.03921619 0.33088005 -0.08072288 -0.045157213 0.06427087 0.12090579 -0.13993941
-0.10603005 0.15608035 0.0779887 0.090917684 0.27145216 -0.0019593153 0.26346356 0.29388037
0.43049258 -0.16959776 0.048282202 0.26682007 0.01782883 0.11993529 0.13851108 0.017236067
0.2453397 -0.2186565 0.08339584 0.05844927 -0.028490549 -0.13421813 -0.26502195 0.16448781
0.18147601 0.08943654 -0.004534757 -0.029123211 -0.04378929 -0.002550223 0.13450761 0.08248519
0.17903629 -0.054432236 0.07342833 0.069015026 -0.0008376227 0.0021218136 0.24943112 0.06443636
-0.10686656 0.07868486 0.01501258 -0.028271202 0.07540933 0.1340863 0.019200062 0.32458088
-0.14653082 0.2660681 0.02817001 0.28948557 0.20993614 0.05705565 0.14662543 0.23959965
0.09132414 -0.011368687 -0.019964047 0.13004261 -0.11528601 0.00080068636 0.06933111 0.09427129
-0.06779507 0.17753123 0.10759184 0.18386985 0.16449383 0.31869382 -0.11188608 0.10446219
-0.0010252382 0.08123221 -0.04361719 0.11029188 -0.007699386 0.31773585 0.23553991 0.22945775
0.14849578 0.22282314 0.12899013 0.0038854245 0.035713717 0.0370484 0.062415928 0.24085595
0.14164078 0.06395192 0.25046247 0.041920118 -0.18677263 0.060909722 0.059208605 -0.08670234
0.06621261 0.015317659 -0.11818088 -0.09677393 0.009307036 0.026995 0.07981426 0.0149783185
0.11108937 -0.009796002 -0.06683966 0.08514443 0.0034194572 -0.046579603 0.17704599 0.030293409
-0.10136316 -0.011282635 -0.10329084 0.09388376 0.036039334 0.042627156 0.07838808 0.09280204
-0.036467258 -0.13301456 0.1450203 -0.20594889 0.03196099 -0.058065347 -0.1538644 -0.1009061
0.10281246 -0.006903314 0.046160012 0.08274809 0.03673595 0.03179031 -0.09285701 0.10600543
0.11664483 0.025069604 0.024695 0.030696679 0.08185578 -0.016388964 -0.05082365 -0.11764623
0.0046515306 -0.10828258 -0.051276505 -0.013744379 0.053859588 -0.071551554 0.05924786 0.096437946
0.15085888 -0.062530965 0.34264967 0.41345713 0.0058782315 0.048784662 -0.092041686 -0.08238762
0.109010816 0.017385859 -0.0852253 0.25979957 -0.24933472 0.246834 0.24089849 0.07893366
0.15231049 0.24715726 0.32624197 0.19356069 0.36428237 0.30806985 0.2115347 0.35525763
0.1774541 0.1298369 -0.08032294 0.25021726 0.04745148 0.14817098 0.0072167665 0.34147117
0.109920695 -0.055411924 0.20062383 0.056393616 -0.031182539 -0.027498623 -0.13202646 -0.088026166
0.16773425 0.095743105 0.34186012 0.097823225 0.1759236 0.54647434 0.22824106 0.1827792
0.23591551 0.2017786 0.27108696 0.16038243 -0.16122948 0.32503164 0.3358533 0.34819448
0.27953866 0.16352396 0.2892508 0.11665884 0.053629097 0.05035877 0.12980501 0.3937405

lstm.bias_hh_l0 f4 [256]
00000000: 0522 89bb c093 a1bd ff48 53be f01c 8f3e
00000010: 94c3 3cbe abe3 3cbe 973e 5dbe 745b 44be
00000020: d7a4 e6bd 26b8 1abd 14c4 9d3d 8ea7 4ebe
00000030: d321 563d 74b7 723e 821f 943e ffe0 f7bd
00000040: 6730 9d3d e724 12bc 1f1f ee3c 8941 91bb
00000050: 0576 193e cde8 9f3d 2dd8 db3c d8d1 9b3e
00000060: c5fb 1fbe c8ac 453d 3e20 bebe 2727 393e
00000070: 5986 84be 45a9 49bd a608 943d c47b 55be
00000080: 7bfd 77bd c26b 043e 498a a83e 2ed3 d6bd
00000090: 7f5b 7fbd 2066 b53c 4ab4 33bd 2792 abbd
000000a0: 9c80 f0bd 8240 27bb 3c13 063e 479c 813e
000000b0: 00a2 913e f70c 453e b6ea 023e 5b35 993e
000000c0: 9124 db3e 9e7f a8bd a351 4b3e 5c60 753e
000000d0: 7cd1 06be db5a 553d 51b1 383e c7a1 5dbd
000000e0: 0e10 713e 41a5 5dbe 93f8 543d a650 69bd
000000f0: 5ddb 123d 2d09 ea3c 9753 62be 788c 243e
00000100: aee4 453e 7f24 723d 09c1 d93c 78db 173e
00000110: 6758 a8bd 8a67 003e 6d4b b03d d040 003d
00000120: bad0 1e3d fa2c d43d 4818 7c3d ac7f 9f3d
00000130: 45ba f63d b7ac b73d aa8d 873e f8fa e13d
00000140: a807 94bd 5782 1b3e 42a3 df3d d958 b03d
00000150: a99b 733e e3ee 873d 8557 b2bb 62d3 6c3e
00000160: 45af e03c 7f60 9f3e c890 29be dfa9 603e
00000170: 363d b33d f94a be3d bf10 023e 17da 7d3e
00000180: b7e5 b63d 3486 f0bd 8ef1 3e3e c45d 083b
00000190: 3798 51bd a788 d3bd 4814 093e 6054 5d3d
000001a0: ccb3 06bd 9d60 7d3e 93ce 293e a64c 043e
000001b0: 3a4e db3d b3ab ab3e 840e 33bd a938 c4bd
000001c0: b5e9 713e 3227 3d3c 5fc5 c6bb 55bb d33b
000001d0: bc28 f43c 761f 9e3d 1b5e 573e fbdb df3d
000001e0: 951a 463e 00c1 443e 6ea7 143e 7fe1 4a3e
000001f0: c02c 243e df4c 93bd 74b2 92bd a29b a43e
00000200: 71cf 0c3d 7dea 55bc aac2 4e3e f09b 77bd
00000210: 9b80 26bd 50d2 ccbd 36a5 f53d 3a5a d0bc
00000220: 551c 93bd e037 08be 4232 843d 2d71 2dbd
00000230: 1853 0abe 8a49 c9bb a541 ccbb d05b 2a3e
00000240: e1fe 003e aebc 883c d074 7bbd 4406 073e
00000250: 5dd1 9bbd ee0c 9c3d e2e6 4c3d 87cc cabb
00000260: 595a f03d 9462 683d 6dc5 023d d5bf 10bd
00000270: 2877 1c3e 2c4d 03be e332 053d 9c6b a53d
00000280: 8ad2 563d 1991 ffbd ac95 a4bb 1cec 48be
00000290: 8847 d2bc 3118 89bd cf04 c5bd 779f 89bd
000002a0: 16be 153e ae77 733d a82c 543d 4604 a73d
000002b0: 8e20 de3d d2b1 343d 234e 853d 5b35 34bd
000002c0: fa5c 623c 4957 063e be0d afbd e6dc 0cbb
000002d0: 36cb 7cbd de0f b2bb 3733 c4bd 2b67 0dbe
000002e0: 6e9c 2fbd 292e 063c 58d5 863d d536 eebc
000002f0: 1ff9 d8bd 941d 823d 085c 03be 3a3c 28bd
00000300: 59b7 35bc fe2e 22bd e75e ac3e dd5d ed3e
00000310: 063a 273e 23f4 1b3d 3ada a8bc 3adb a4bd
00000320: 23e7 993e ae4f 383e b60b c8bd f127 9a3e
00000330: b451 5cbe 5810 423e f7d4 673e a894 6e3b
00000340: 150c bebd e6c9 a13e ad6c 5e3e 0368 5b3d
00000350: 2826 883e 1372 d23e a7be 603e d771 ea3e
00000360: ad75 103d afa6 783e 8834 07be 5e49 4e3e
00000370: 7279 aabb cae5 8a3e ade4 323e 4d03 e83d
00000380: d627 1fbd fc87 b2bd bdd2 ae3e 6292 83bb
00000390: 7423 3f3c 28ad 3c3e 78d4 01bd 2c8c ccbc
000003a0: 0c01 393d c988 693e 8ddb ad3e a9fe d03d
000003b0: acde 933e 2937 c23e 1c3e 963e 6b7c 313e
000003c0: 382e 553e a42d 243e 9025 8e3e cff3 033d
000003d0: 3d66 99bd 4bff e83d a914 0e3e 6fb1 4f3e
000003e0: 2728 4f3e 8d41 7d3d f9b3 433e d94e 283d
000003f0: 3bd6 1cbd 70bd 163d 1b69 e03d cddb b33e
-0.0041849636 -0.07889509 -0.20633315 0.27951765 -0.18433982 -0.18446223 -0.21605907 -0.19175512
-0.112619095 -0.037773274 0.077034146 -0.20181105 0.05227835 0.23702794 0.2893029 -0.121034615
0.07675248 -0.008919931 0.029067574 -0.004432861 0.14986427 0.07808075 0.02683648 0.30433536
-0.15623386 0.04826048 -0.37133974 0.18081342 -0.2588375 -0.049233694 0.07228212 -0.20847994
-0.060544472 0.12931731 0.32918003 -0.10489498 -0.062343117 0.022143424 -0.04387311 -0.08377486
-0.1174328 -0.0025520627 0.13093275 0.25314543 0.2844391 0.19243227 0.12784848 0.2992352
0.42801335 -0.08227466 0.1985536 0.2396254 -0.1316585 0.0520886 0.18036391 -0.05410936
0.2354128 -0.2164507 0.05199487 -0.056961678 0.035853732 0.028568828 -0.221022 0.1606921
0.19325516 0.059116837 0.026581304 0.14829814 -0.082199864 0.12539497 0.08608136 0.03131181
0.038773276 0.10360141 0.061546594 0.07788023 0.12047247 0.089684896 0.2647527 0.110341966
-0.07228023 0.1518644 0.10919811 0.08610696 0.23789848 0.06637361 -0.005442562 0.23127511
0.027427325 0.31128308 -0.16559136 0.219398 0.087519094 0.09291644 0.127017 0.24790226
0.089305334 -0.11744347 0.18646833 0.0020807842 -0.051170554 -0.10328799 0.13386643 0.054035544
-0.03288631 0.24743886 0.16582708 0.12919864 0.1070828 0.33529434 -0.043715015 -0.095811196
0.23624308 0.011544989 -0.006066009 0.0064615407 0.02980458 0.077208444 0.21031992 0.1093063
0.19346078 0.19214249 0.14516994 0.19812582 0.16032696 -0.071923964 -0.071629435 0.32149988
0.03437752 -0.013056395 0.20191446 -0.060451448 -0.04064999 -0.100010514 0.11994402 -0.025433648
-0.07183138 -0.13302565 0.064548984 -0.04234426 -0.1350826 -0.0061427997 -0.0062334114 0.16636586
0.12597229 0.016691532 -0.061390698 0.13185984 -0.07608292 0.07619654 0.050024875 -0.0061889323
0.117359824 0.056734636 0.03192656 -0.035339195 0.1527983 -0.12822407 0.032519232 0.080771655
0.05244688 -0.12478847 -0.005022725 -0.19621319 -0.025668874 -0.06694067 -0.09620058 -0.06719869
0.14623293 0.059440307 0.0518004 0.08155112 0.10846053 0.044114895 0.06509044 -0.043996196
0.013816113 0.13119234 -0.08547543 -0.002149397 -0.061717235 -0.0054340204 -0.09580081 -0.13808887
-0.042873792 0.008189716 0.06583661 -0.02907888 -0.10594391 0.06353298 -0.12828076 -0.04107306
-0.011091077 -0.039595596 0.33666155 0.46360675 0.16330728 0.038074624 -0.020611871 -0.08049627
0.30059156 0.17999145 -0.09767859 0.30108598 -0.21515542 0.18951547 0.22639833 0.0036404524
-0.09279648 0.3159935 0.21721144 0.05356599 0.2659161 0.41102657 0.21947728 0.45789978
0.035268474 0.24282335 -0.13203633 0.20145175 -0.0052024657 0.2712844 0.17470045 0.113287546
-0.03885635 -0.08717343 0.34145156 -0.004015253 0.0116661675 0.18425429 -0.031696767 -0.024969183
0.045167014 0.22806086 0.33956566 0.102048226 0.28880823 0.3793271 0.2934426 0.17332618
0.20818412 0.16033036 0.27763033 0.032214936 -0.074902035 0.11376818 0.13875069 0.2028253
0.2023016 0.061830092 0.19111623 0.04109082 -0.038290244 0.036801755 0.10957547 0.35128632

lstm.weight_ih_l1 f4 [256, 64]
00000000: 75c9 ffbc 0cad 66be 476d 9bbd 9e2d 8bbe
00000010: 2bff 853d dfb5 cc3e f81e d63d b0b1 3a3d
00000020: 9f77 433f 8a07 b23d f826 323d 63ad c2bd
00000030: 8dbc a03e 8997 6abd 8dc0 dd3d ec6c b33d
00000040: 301c dcbe 5a86 6fbe db1e d13d 7adb ac3e
00000050: e143 4fbe d58c ef3d acae ffbe b419 1ebf
00000060: 67a4 903d 7751 28be 4b2c d83d 7513 b2be
00000070: 3f02 ebbd f458 2e3b b045 4d3e 704a 9ebd
00000080: 012b a1bb 9b3b 873d 3264 843d 1009 c23d
00000090: bc25 53bd 8bdf 6f3e 52ee c7bc 99fe 4fbe
000000a0: dbb8 49be 156d 87bd aec2 c33d 9ac4 c9be
000000b0: af91 29be 87b4 51be 8d84 bfbe 84a5 b5be
000000c0: 8bae 4a3e 6c72 25bc 8ec8 073e f10a f3bd
000000d0: 9656 86bd b73a b9be 8bfb 553e 990e b6be
000000e0: 561c 273e a540 93be e08e b23d aab0 11bf
000000f0: 59f6 a2bd b68c 7a3d 321a 00bd e0bc 133e
00000100: f81d 72be 6a44 383e e39c 8bbe 10b5 f63d
00000110: febb 66bb bedb 84be ca91 863d 5bdb 5abd
00000120: 15cc a9bd cff4 c73d 4388 293c 5783 43be
00000130: af9f 483e 8a11 9ebd f3fa c2be 5bf8 983e
00000140: a43c fcbd 9b45 9dbd 06b2 cabc d822 093d
00000150: 366a 793d 0579 8dbd 924f 683d 07ff bcbd
00000160: f3f3 8dbe ef71 e8bc 6f28 ebbe 7ec1 47be
00000170: 1f0a fc3d d5ff 0cbe ac51 01bf 7f7d acbe
00000180: a7a3 423e 4efb 0ebe 2284 b13e aff2 0e3d
00000190: 45c3 643e 0d8c 8c3d 40dc a53d 413a 083a
000001a0: 3e9a 8bbe bad2 0a3e 2dd0 493e 35d9 243e
000001b0: cc06 b5be f4ad 603e ba53 4e3e fc23 43be
000001c0: f23b 5dbe 4be4 2c3d dff1 87be 93f4 bebd
000001d0: 1f8c 2abc a18f 6b3e 6c13 283e 9d09 873e
000001e0: c82b 2dbe 6d6f 47be d33d 9abd c263 60be
000001f0: cc03 0b3d f100 7abe 146f 48be 872e 893e
00000200: 872e c2be 6ee3 1bbe c9d3 18be 86d7 4cbd
00000210: ca9b 153d 672b 143e 3362 8abd ac98 96bc
00000220: b941 653e 2c0e 38be efa0 063e 37da 8d3e
00000230: 106f 6cbe cd05 83be d5d3 37bd 84e6 aa3e
00000240: fd93 03be dfe7 ba3d 366c 49bd 55f1 aebd
00000250: d616 023f 8693 c93d ed34 293e 92eb 073f
00000260: 9ccd 433e f175 3b3e 7be5 56bd a57d 843d
00000270: 9925 f0bd 50e9 823e 5bfe e3bc 7d98 423d
00000280: 8478 9cbd bc33 1ebe 6e6c a63e f0c3 7dbb
00000290: c9f1 59bd d25e 1f3e b4e2 3b3e cc29 5dbe
000002a0: 51c9 43be ef4b ab3c da9e 85ba 488a aebe
000002b0: 3530 d7bd c23b eb3d 54f6 31be 75a3 833e
000002c0: 2b35 6f3d 7640 3e3e dafb 4ebe cd74 e33d
000002d0: 3c68 83bd 0973 483c 9991 99bd 026e 33be
000002e0: 17a1 ab3d ef13 8ebd 7159 e1bb af49 853d
000002f0: 33c2 32bd 8766 0dbe f113 143e 27fc f23d
00000300: 8184 5e3e 09a5 913e aac4 6c3c 3cf9 79be
00000310: c940 aabd b9ff e43d 2f19 67be d364 13be
00000320: 172d 5c3e 8212 e7bc 1cd6 b7bd c5fd 163e
00000330: 70ef 903d 9675 a6be 249d 183d 8e50 2c3e
00000340: b551 64be 36a8 4c3e 2372 023e 0025 eb3d
00000350: c657 5d3d 2140 183e fd58 8dbe 43ec 0dbd
00000360: 8d68 92bd 5028 9c3d 8d58 703c 318b e3bd
00000370: 8f3a 5ebe a2a9 1dbe a1d4 033e 1bde a4be
00000380: 6d27 2f3e c8cb b5bd f6fa 9f3e d3f8 603e
00000390: 1ac4 e93c c05b 87bd 18de 2cbe f0f6 6cbe
000003a0: e728 3b3c f9e1 013e 1e56 a0be a92d 1a3d
000003b0: 7184 17be 54c7 843d b672 d73d b979 c53c
000003c0: 8f77 d0bd 00a2 33bd 9a08 d0bd 1351 413d
000003d0: a01a 6a3e 7f98 42bd ea00 8e3e f75f 20bd
000003e0: df62 1cbe e074 8e3d 06bc 5ebd 8db5 f03b
000003f0: 1b00 b7bd fa40 02bc 2d5b 72be 3810 d9bd
-0.031223992 -0.2252695 -0.075892024 -0.2718324 0.0654281 0.39982507 0.104551256 0.045579612
0.763544 0.08692844 0.043494195 -0.09505727 0.31393853 -0.05727342 0.10827742 0.087610096
-0.42990255 -0.23391095 0.10210963 0.33761197 -0.20240737 0.116967835 -0.49937952 -0.6175797
0.07062607 -0.16437326 0.10555323 -0.3478047 -0.11475038 0.0026603313 0.20046115 -0.077290416
-0.0049184565 0.06603166 0.06464423 0.09474385 -0.05154966 0.23425119 -0.024405632 -0.20311965
-0.19699423 -0.066126026 0.095586166 -0.39407808 -0.1655948 -0.20479022 -0.37405816 -0.3547784
0.19793145 -0.010098081 0.132601 -0.11867321 -0.06559484 -0.36177608 0.20896737 -0.35558012
0.16319403 -0.28760257 0.087186575 -0.5691019 -0.07957143 0.06116935 -0.03127498 0.14427519
-0.23644245 0.17994848 -0.27268133 0.12046254 -0.0035207267 -0.259489 0.06570776 -0.05343185
-0.08290879 0.097634904 0.010347429 -0.19093071 0.19592164 -0.07718189 -0.38082084 0.2987698
-0.12316254 -0.07679292 -0.024743091 0.033480495 0.060892306 -0.06907848 0.05671651 -0.0922833
-0.2772518 -0.02837464 -0.45929286 -0.19507405 0.12306618 -0.13769467 -0.50515246 -0.33689496
0.19007741 -0.13963053 0.34671122 0.03489941 0.22340114 0.0686265 0.0809865 0.0005196669
-0.27266115 0.13556948 0.19708319 0.16098483 -0.35356748 0.21941358 0.20149127 -0.19056696
-0.21604899 0.042209905 -0.2655172 -0.093239926 -0.010409384 0.23004009 0.16413659 0.26374522
-0.16911232 -0.194761 -0.07531323 -0.21913055 0.033939168 -0.24414422 -0.19573623 0.2679331
-0.37926123 -0.15223476 -0.1492454 -0.050010227 0.036525525 0.14469682 -0.06757011 -0.018383346
0.22388352 -0.17974156 0.13147329 0.27705547 -0.23089242 -0.25590363 -0.044879753 0.33378994
-0.12849422 0.09126257 -0.049175464 -0.08542124 0.50816095 0.09842591 0.16524096 0.53093827
0.19121403 0.1830671 -0.052464943 0.06469277 -0.11725921 0.25568628 -0.027831247 0.047508705
-0.07640174 -0.15449423 0.325046 -0.0038721524 -0.0532091 0.15563515 0.18348199 -0.21597975
-0.19119765 0.020910231 -0.0010194436 -0.34089875 -0.10507242 0.11486007 -0.17379123 0.25710645
0.058400314 0.18579277 -0.20213261 0.11106262 -0.064163655 0.012234458 -0.07498474 -0.17522433
0.08380335 -0.06937396 -0.0068771173 0.06508195 -0.043642234 -0.13808642 0.14460732 0.118645005
0.21730234 0.28446224 0.014451185 -0.24411482 -0.08313138 0.11181588 -0.225682 -0.1439393
0.21501575 -0.028207067 -0.08976385 0.14745243 0.07076919 -0.32511586 0.037259236 0.16827604
-0.22296794 0.19986042 0.12738852 0.114816666 0.054038785 0.14868213 -0.27606955 -0.034649145
-0.07148848 0.076248765 0.01466955 -0.11110533 -0.21702026 -0.15396741 0.1287408 -0.32200703
0.17104883 -0.08876759 0.31246156 0.21969919 0.028535891 -0.06609297 -0.16881597 -0.23141074
0.011423326 0.12683858 -0.31315702 0.0376412 -0.14796616 0.06483331 0.10519926 0.024105893
-0.10179054 -0.043855667 -0.101578906 0.04719646 0.22861719 -0.047508713 0.27735072 -0.03915402
-0.15272091 0.06955886 -0.054378532 0.0073458613 -0.08935567 -0.007950062 -0.23667593 -0.105987966

lstm.weight_hh_l1 f4 [256, 64]
00000000: 835b 463e 7e98 f43c f753 073f 9d37 98be
00000010: 7e54 5ebb c69d b8bc 3d18 90be 3505 be3e
00000020: 0dab 4bbe c85d 67be aadd 3c3e cedd 853d
00000030: aba8 ba3e 82d1 603e c103 68bd 36e0 11bd
00000040: 916e a63e e597 d43d 808a 3ebe c337 c63b
00000050: d9ed 843e 41c3 e9be 4bec 2abf 21d0 503d
00000060: 229d 35bc d164 a0be eae5 d4bc 0a4e 403e
00000070: ce75 e0be 72e8 babc cab5 1dbf 5bb6 e93e
00000080: 4606 1dbe 810d e8be c6dd a33e 2a36 b33e
00000090: d3c7 7c3e 9b05 3cbe 5c46 83be 241f 983e
000000a0: 1761 c93c aa33 ca3e f5ec 0d3e bf4a 93bd
000000b0: 9967 aebe c3a3 b5bd b3ef 86be b425 6dbd
000000c0: da8d aebe 50d8 a73e 0f0d b73e b368 e73e
000000d0: 07c6 ac3e d9cd a1bc cdfe 8bbe 4d38 0bbe
000000e0: 9c5d 46be 4a6c 0a3e f792 cdbe 14d7 d83e
000000f0: 40fc a4be 6f97 bebe c798 b73e 8b4b 9b3d
00000100: 0e4d 2e3e 7862 083d a714 713e adf4 b93d
00000110: fdce ccbc f083 933b cd35 12be a56b e7bd
00000120: 9f04 48bd ac8f ebbe 3465 adbe d407 2fbf
00000130: 9b06 50bd fa75 46be 5ef7 013d 234f 253e
00000140: aced 843e 196d d83e a3c4 c3bd 71b1 ab3d
00000150: 3863 513e d555 aebe 82eb 013e 8aec 70bd
00000160: 0d66 713e fb39 b13e 9a1a c5be baa3 cdbc
00000170: d98a a8be a5b8 a0bd 02e9 cdbb b859 d3bd
00000180: e461 193e e658 2cbf ecdd 5fbd 6132 6e3e
00000190: 83be 43be d16d 94bd 20fe d7bd 7db6 ddbc
000001a0: f5c3 eabe e2cd c73d 45e4 e3be d7ed c43c
000001b0: 41dd f6bd 2efc 723e 8da3 c13d 7839 20bf
000001c0: 7ae5 c8bd 759a be3e 6962 15be 69cf 433e
000001d0: c118 823e 6e63 553d 55d0 60bd 06ed 79bc
000001e0: 9f11 67be bc27 193e 29fd 88be a2de f6bd
000001f0: 7607 25be 3d5c 98bd 27e6 d1bb a66c a43e
00000200: a318 8fbd 1de9 a8be 35d3 8c3e d353 8f3e
00000210: 3883 19bf 67be 823d b776 0bbe b320 28be
00000220: 9afc 58be 8f5b 1b3c d85a ea3d 959c 5f3d
00000230: 4602 05bc 8679 2e3d 9ecb 703c 9090 8cbd
00000240: b404 6a3e 6eb3 2fbc dd33 cd3d 6058 c03d
00000250: 6321 9a3c 701b 72be 1f59 8a3e 630a 7abd
00000260: ed51 593c a2f6 873d da9a 72be d35f 823e
00000270: 2890 64ba cb4b 7c3e 1d3b 763d 444c 3bbe
00000280: 8b18 193e fe1c d4bd 74fc cf3e 185f 47be
00000290: 379e a33d 7eb6 bebe bf46 b4bc fce7 393d
000002a0: 7322 f7bd d62b 8dbd 11ec fd3d d644 743e
000002b0: 6d0c ac3d 283e 063f 0f63 93bd 6099 a9be
000002c0: 4619 86be 1405 cd3e dcef 323e 93e0 acbb
000002d0: 3814 a53e 6316 88be 3d56 adbe b237 63be
000002e0: d768 60bd 5029 8e3e 655e 99bd 527d 65be
000002f0: ed90 92bd c558 323e a5bb c23c 07d0 bf3c
00000300: b641 fd3d 5814 c2bd 1d9c 643e 3ae6 77be
00000310: 9992 87be 8795 c9be 9de6 f3bc 30d1 00be
00000320: 0b32 803e 84d3 6dbe 1073 cebd a859 8bbd
00000330: 9833 0b3c b39c 883c 7aaa 8abe ebed d9bd
00000340: 1cf4 36ba 5dae 93bd 713e 8fbd c29d 16b9
00000350: 8b5b d93d 1c1c 4f3e 0e56 043d ad5e 91be
00000360: 396d 653c dea7 c93e 233c 0a3e 407d c33d
00000370: a1fd 47be 7fac 9fbe 47f2 92bd 3ba3 ffbd
00000380: c0d9 3d3e a402 61be c568 ac3d 9dd9 86bc
00000390: bf2b c03c 95a9 243e 8d64 cc3d 4466 b5bc
000003a0: 689d 873d 4a70 7dbc a568 e13d 8bf0 9f3c
000003b0: f4a1 cbbd f6e6 b13d cfc3 a3bb f51f f23d
000003c0: 5b9b 4c3d 6dd4 31bd afe5 71be 0b12 24be
000003d0: fdd6 b53e 06ae 0bbe ca48 d9bd dfc0 a63e
000003e0: 84ff 21bd 9b11 b53e 2357 02be f621 5b3e
000003f0: a764 31be af7c 003e 9a9a 1dbe 803d be3d
0.19370846 0.02985787 0.52862495 -0.2972993 -0.0033924873 -0.02253617 -0.28143492 0.37113348
-0.1988947 -0.22594368 0.18443933 0.065364465 0.36456808 0.21954921 -0.056644205 -0.035614215
0.3250623 0.10380534 -0.18607521 0.006049128 0.25962713 -0.4565678 -0.66766804 0.050979737
-0.011084827 -0.31326917 -0.025988538 0.1877977 -0.43839878 -0.022815917 -0.61605513 0.4564694
-0.15334424 -0.45322803 0.32005137 0.3500226 0.24685602 -0.18361513 -0.25639617 0.29711258
0.024582429 0.39492542 0.13859923 -0.07191991 -0.34063414 -0.08869126 -0.2635475 -0.057897285
-0.340926 0.3278222 0.3575215 0.45197067 0.33744833 -0.019751476 -0.27342835 -0.13595696
-0.19371647 0.13517871 -0.40151188 0.42351592 -0.322237 -0.3722491 0.35858747 0.07582768
0.17021582 0.033297032 0.23543034 0.09079871 -0.025001043 0.004501812 -0.14278336 -0.112998284
-0.048832532 -0.4600805 -0.33866274 -0.6837132 -0.05078755 -0.19380942 0.03173005 0.1614347
0.2596258 0.42270735 -0.0955899 0.08383454 0.20448005 -0.3404986 0.12687495 -0.05881933
0.23574086 0.34614548 -0.38496858 -0.025102485 -0.32918432 -0.07847718 -0.00628388 -0.10319847
0.14978749 -0.6732315 -0.054655 0.23261406 -0.19115643 -0.07247508 -0.10546517 -0.027064556
-0.45852628 0.09756066 -0.44510093 0.024039192 -0.120539196 0.23729011 0.09455023 -0.6258769
-0.09809394 0.37227216 -0.14588322 0.1912209 0.2540951 0.052096777 -0.05488618 -0.015254265
-0.22565316 0.14956564 -0.26755646 -0.120541826 -0.16116127 -0.07439468 -0.00640561 0.32114142
-0.06987121 -0.3299035 0.27504888 0.2799364 -0.5996585 0.063839726 -0.13619505 -0.16418724
-0.2119011 0.0094822785 0.11443108 0.054592688 -0.008118218 0.042596363 0.014696984 -0.068635106
0.22853357 -0.010723932 0.10019658 0.09391856 0.018814748 -0.23643279 0.2702112 -0.06104506
0.013264162 0.06638838 -0.23691884 0.25463733 -0.0008718991 0.24638288 0.06011497 -0.18290812
0.14950769 -0.10357092 0.40622294 -0.19469869 0.079891615 -0.37248605 -0.02200639 0.045387253
-0.120671175 -0.06893127 0.12398542 0.23854384 0.084008075 0.5243859 -0.07196628 -0.33124828
-0.26191157 0.40042937 0.17474312 -0.005275795 0.32241988 -0.2657958 -0.33854857 -0.22189215
-0.054787483 0.27765894 -0.074887075 -0.22411087 -0.07156549 0.17416675 0.023771117 0.023414625
0.12366049 -0.094765365 0.22325177 -0.24208918 -0.26479033 -0.39371893 -0.02977305 -0.12579799
0.2503818 -0.23225218 -0.1008054 -0.0680421 0.008496188 0.016676283 -0.27083188 -0.106410824
-0.0006979124 -0.072109915 -0.06994332 -0.00014363884 0.106131636 0.20225567 0.03230863 -0.28392544
0.0140030915 0.39385885 0.13499503 0.09545374 -0.19530345 -0.31186292 -0.07175117 -0.124823056
0.18540096 -0.21973664 0.08418421 -0.016461188 0.02345836 0.16080315 0.09980116 -0.02214349
0.0662182 -0.015468666 0.110062875 0.01952388 -0.099429995 0.086866304 -0.0049977074 0.118225016
0.049952846 -0.043415476 -0.23622774 -0.16022508 0.35515586 -0.13640603 -0.106095865 0.32569024
-0.03955032 0.35364994 -0.12728553 0.21399674 -0.17323552 0.12547563 -0.15391007 0.09289074

lstm.bias_ih_l1 f4 [256]
00000000: 225a bfbe d668 a4be 7f98 66be 4681 b0bd
00000010: 96aa 54be 38e4 bbbe 4dd1 5abe b8ae 43be
00000020: 43b3 70be c5cb 6fbe dc85 b2bd 28cb adbe
00000030: 9151 d0be 142f 8abe 0c6e 5abe fb84 92be
00000040: 537b 53be 755b 72be 4470 3abe 8e26 e2be
00000050: c1c6 96be b0bc 87be a02d 17be efab 8cbe
00000060: 228f 27be 9e86 b2be d763 d4be c272 47be
00000070: 8492 2ebe 0c7f 6bbd 3414 5bbe a848 6cbe
00000080: b54e 59be 2483 68be 41a3 74be 6054 d5be
00000090: 007b 91be 1d47 7abe 14eb 51be 48b9 62be
000000a0: a8f4 57be 3476 85be fda4 22be d5ff 4abe
000000b0: 6d5f 14be 8dd4 24be 09a8 b2be 4721 6cbe
000000c0: 218b 63be 4147 b2be a74b 78be 4613 acbd
000000d0: 25f8 cfbe 2e1a 03be b5d5 56be 7112 89be
000000e0: 019d b4be dde1 d4be d064 9abd 63f4 40be
000000f0: 6ed9 84bd 975c a6be ac17 b9be 3be6 4cbe
00000100: 01b8 0b3e fcc0 583e 7345 b63d 99ab 68bd
00000110: f482 96bd 5d04 07be b908 c83c acea 353d
00000120: 1054 d03d b36b 2c3e 6aae 6b3e 6834 fd3d
00000130: e09e bbbc ece1 e83d 5b32 82bd 549f fbbc
00000140: 9610 263e 5245 60bd 0863 663c cac3 24bd
00000150: 4ebb 65bd b5b2 e53d cc1c 4a3e 60c0 263e
00000160: 7674 cebd 5bf0 39bd 5735 a83d 5294 7dbd
00000170: 932c ac3d dfbd c23d 447f 073e 18ac 1b3e
00000180: 36de c83c 229a 1c3e 9426 81bd 9407 c03c
00000190: df7a bf3c 820e e6bc 1667 843e 28c3 f9bd
000001a0: 9aff 24be 8211 793e 4eef 233d 77dc 9dbd
000001b0: d524 f03c dbf7 fbbd 15f9 273d 4138 c6bd
000001c0: 7ee6 a93d f8fe c23d bcf5 8f3b af28 013e
000001d0: 31a3 4b3e 0236 1a3e d6f1 0dbd ed97 37bd
000001e0: 05e8 e93c 61a4 bf3d 84d0 47bb 25b8 6d3d
000001f0: 9a0e 1e3c 9ab6 0d3e 0a1f 183c d426 203e
00000200: a6cd 8f3c 7ad5 ad3d fd52 c73d 4044 ed3d
00000210: 83e8 723d 8e31 4abd d284 c93d 8d9c 743d
00000220: 2cca de3d 5ade 963d e00d 113d 9ca2 ba3d
00000230: 0f43 b63d 6ef6 ddbd 5189 a8bd 00bc 263d
00000240: 034e dfbd 3a90 133e 7978 db3d 7a92 16bc
00000250: f2d2 ec3c 5f97 f13d 7b72 18bd e49c 4a3d
00000260: 4bbd 993d 922d bb3c dc2a 1ebc 7c8c 9c3d
00000270: a7ce b73d 6599 d3bd 5279 d83d 3395 bd3d
00000280: 7f9d 3dbe 1afe a33d 1ecc 833c 2520 ce3c
00000290: e107 153d cd68 b23d 0b9b 113e d1f5 523d
000002a0: a97e 4cbd 2322 a23d 3bb9 ba3d 3815 65bd
000002b0: e144 ae3d c27e 86bd 1ce4 133d 5c18 f93b
000002c0: 3917 fa3d 0122 fbbb f808 8a3d 43a1 743d
000002d0: 8f53 3dbb f0b7 b53c 5ba8 1b3e 0bdd d8bc
000002e0: ea10 96bd 1fef 523c 129f 013e 4c86 303c
000002f0: 9541 493d 4b69 c3bc 71ec e7bd 6c99 e1bd
00000300: ce95 6bbe 0679 a4bd 2514 31be 07f6 82bd
00000310: f267 c2bd e1e3 99be 3144 25be aba6 cfbd
00000320: 72ca 58be 05b2 59bd 3de1 74be 2615 b1be
00000330: 6f82 86be ebf5 03be 7de3 9cbd bb52 40be
00000340: 16ca 2abe 895c 67be 1840 11be 7f35 c0be
00000350: 81c0 99bd 3ea7 21be 0cad 61be eb06 5fbe
00000360: 2dbd 3bbe c060 8bbe 972d 8fbe cf93 62be
00000370: 0f92 b0bd 2176 3cbd 0bda 82be 70e9 59be
00000380: 334e cdbe 9c49 a0be fe7a 98be feb2 e5be
00000390: 4a8c 85be af09 cdbd 569d 50be e79e 25be
000003a0: 5451 a5be a46c febd 007c 83bd 7aef 1dbe
000003b0: 9ca3 033b d43b 9bbe 7a98 56be 9cd6 3fbe
000003c0: 56d2 40be 96d7 3cbe 3b63 51be 31d9 3abe
000003d0: 2101 e9bd 208c 57be 2a0e 89bd 2f92 18be
000003e0: 6d0b 77be f3d2 a7bd 32fb cfbd 5e3d aebd
000003f0: c72b 16be deca 6abe 8d9d 77be 265c 69be
-0.37373453 -0.32111233 -0.2251911 -0.08618407 -0.20768198 -0.36697555 -0.21368904 -0.19109619
-0.23505883 -0.23417576 -0.08716938 -0.33944058 -0.4068723 -0.26989043 -0.21331042 -0.2861708
-0.20652513 -0.236677 -0.18206888 -0.4417004 -0.29448512 -0.26511145 -0.14763498 -0.27474925
-0.16363195 -0.3486833 -0.41482422 -0.1947737 -0.17048079 -0.05749421 -0.21394426 -0.23074591
-0.2122143 -0.22706276 -0.23890401 -0.41665936 -0.28414154 -0.2444119 -0.20499831 -0.22140992
-0.21089423 -0.26066744 -0.1588325 -0.19824155 -0.14489527 -0.16096707 -0.34893826 -0.2305957
-0.22221042 -0.34819987 -0.24247609 -0.084021136 -0.40619007 -0.12802956 -0.2097996 -0.26771882
-0.35276034 -0.4157857 -0.0753876 -0.18843226 -0.06486784 -0.32492515 -0.36150873 -0.20009701
0.1364441 0.21167368 0.08899965 -0.056804273 -0.07349196 -0.13185258 0.024418222 0.044413254
0.10172284 0.16837959 0.23015752 0.12363511 -0.022902906 0.11371216 -0.06357261 -0.030715622
0.16217265 -0.05475361 0.014061697 -0.04022578 -0.05608683 0.11215726 0.19737548 0.16284323
-0.10080807 -0.045395236 0.08213299 -0.061909027 0.08406939 0.09508871 0.13232142 0.15202367
0.024520021 0.15293172 -0.06306186 0.023441114 0.02337402 -0.02808309 0.25859898 -0.12195426
-0.1611313 0.24323085 0.04002314 -0.07708066 0.029314438 -0.12303134 0.041009028 -0.09678698
0.08295916 0.09521288 0.0043933075 0.12613176 0.19886471 0.15059665 -0.03465446 -0.044822622
0.028553018 0.09357525 -0.0030489275 0.058036942 0.009647036 0.13839188 0.009284744 0.15639812
0.017554116 0.08487983 0.09732626 0.11585283 0.05930377 -0.049363665 0.098397866 0.05971961
0.10878405 0.07366629 0.035413623 0.091130465 0.08899509 -0.10838018 -0.08229316 0.040706635
-0.109035514 0.14410487 0.10716338 -0.009190196 0.02890918 0.1179645 -0.037218552 0.04946603
0.07506808 0.022848878 -0.009653773 0.07643983 0.08974963 -0.10331992 0.10570015 0.09256973
-0.18517111 0.080074504 0.016088542 0.025161812 0.036384467 0.087113954 0.142193 0.05150396
-0.04992548 0.07916667 0.09117361 -0.05592844 0.08509231 -0.06567146 0.036106214 0.007601781
0.122114606 -0.0076639657 0.06739992 0.059724104 -0.0028888916 0.022182435 0.15200941 -0.026472589
-0.07327445 0.012874394 0.12658337 0.010774206 0.04913481 -0.023853919 -0.113243945 -0.11015591
-0.23006365 -0.08030896 -0.17292841 -0.06394582 -0.09492482 -0.3005667 -0.16139294 -0.10139211
-0.21170977 -0.05314829 -0.23914047 -0.34586447 -0.26271388 -0.12886779 -0.076605774 -0.18781559
-0.16678652 -0.22593893 -0.14184606 -0.37540814 -0.0750742 -0.15786454 -0.22038668 -0.21779983
-0.18333884 -0.27222252 -0.2796447 -0.22126697 -0.086216085 -0.046011094 -0.2555698 -0.21280456
-0.40098724 -0.3130616 -0.29781336 -0.44863123 -0.26083595 -0.100116126 -0.20372519 -0.16173898
-0.3228861 -0.12423065 -0.064201355 -0.15423384 0.0020086532 -0.30319083 -0.20956603 -0.1873421
-0.18830237 -0.18441615 -0.2044801 -0.18246914 -0.113771684 -0.21049547 -0.06692155 -0.14899515
-0.24125452 -0.08194532 -0.101553336 -0.085077986 -0.14665137 -0.2292895 -0.24181195 -0.22789058

lstm.bias_hh_l1 f4 [256]
00000000: fdc9 1dbe 3ea1 7cbe d5c2 3dbe 18db 1bbe
00000010: e0b3 8ebe e8ad cfbe 9d0e 8cbe e6dd 50be
00000020: 6946 47be 902c 44be 95d2 a5be b14f d6be
00000030: 93e5 94be 750c 9dbe 4907 91be e1e8 8bbe
00000040: 3318 b6be fabb 59be a368 a6bd 43d5 96be
00000050: c8f6 1bbe a95b 27be 2d07 8bbe 391f c6be
00000060: 549e 96be 3d5a 90be 1712 66be c4e3 afbe
00000070: f0bb 8dbe d718 05be ed0a adbd abdb bbbe
00000080: 91b2 6fbe c398 bbbe 6eb5 35be ce36 b5be
00000090: d48b 04be 4ef8 49be 1854 74be 2e11 26be
000000a0: 3c96 8cbe 8871 8dbe 01f5 ecbd d75c 97be
000000b0: 8c33 cdbc 3353 9cbe 658b 51be 8b48 89be
000000c0: 6140 e8bd dedb 83be 78ce 47be de7b 2fbe
000000d0: ee29 3dbe b301 b4bd 7da3 7ebc 77e2 8fbe
000000e0: 26ba 75be de62 c5be 8106 13be 33cd 2fbe
000000f0: 76b6 1abe c165 19be cbaf 88be 6346 04be
00000100: a1b6 ba3d 3540 fd3d 5ac7 063e 312d 203e
00000110: ad30 e73d d826 80bd 0201 1bbe 4d23 aa3c
00000120: 5876 3c3e 621b 37bd 8449 a63d 074d da3d
00000130: 34a5 183c e097 513d a9bb 213d cc77 f4bd
00000140: d1de 5c3d c038 b3bc 5de7 fe3d b8ac 103d
00000150: a99e 38bd 8295 09bd 2670 7d3e fad2 2ebb
00000160: 5f39 96ba e819 03be 6b38 373e f4ce 8e3d
00000170: b59c 203e 368f d23d bea2 f03d dde4 703e
00000180: e4d1 8b3c 04f3 35bd 8aee 6cbc 672c edbd
00000190: c276 653d 1792 303d 4b3f ae3d 540a 2abd
000001a0: b0fd ccbd 4c66 ee3d d03b a2bb 1f9b 893d
000001b0: 4c2a 993c e8b6 ca3d 5e00 703d 970e 8b3c
000001c0: 7200 c7bd 9268 0f3e 2b07 e3bd 42b1 443e
000001d0: 9374 67bc 3eb2 e9bb 5600 bbbb b210 eabc
000001e0: fe20 5f3d d1ed c23c 990f 723d fd87 703e
000001f0: 5b5c ec3d d6a1 513e c8e5 803b a6f0 e33d
00000200: 126a 51bc 5e7e 82bd e5d5 56bd 21ff ac3c
00000210: fef5 573c fcfe 8d3d 1c9b 913d cf4d 903d
00000220: f8a8 c8bd 5a69 933d e2ce d93d bde0 823d
00000230: 9a11 02bd 7b98 973d c926 f6bb 0e34 08bd
00000240: dfbe b3bd e0b6 913d 2ad1 f13d 8cd5 4c3d
00000250: 5cbb 823b 9889 983d 1aae 683c 9526 0c3d
00000260: bcc3 51bd ccc8 2abd d7df ac3d 7fa6 59bd
00000270: 5d37 e03a 91e2 a6bc 480d d23d eb3f dbbd
00000280: 80a3 2ebd 0c4a 4abc 17ee 74bd 484f d43c
00000290: 632c 3bbc f4ea e7ba 49b7 333e da30 a93d
000002a0: d999 013e 5285 1abd 362c e73d cd44 81bd
000002b0: a6b1 223e 1bb0 e13b d7e5 3e3d 1f22 233d
000002c0: 5677 d5bd 39ac bc3d 8f86 90bc 3230 e2bd
000002d0: e4dd ab3b f37e 0c3e 99d2 113d faa6 91bd
000002e0: 69e8 05bd a080 ad3c 1588 753d c4bc 8abd
000002f0: 9617 0b3e 984a d53d 0e07 8abd 2f2b 813c
00000300: 4bcf 2abe e8b5 683c 09f2 64be 7c3e 87be
00000310: eaf9 8dbe e377 8bbe 6a32 babe 9e1a 67be
00000320: e071 c1bd 1a3f 57be f966 a8bd 0de9 7abe
00000330: 2f7e 44be 92dc 9abd e214 9dbe ff02 a3be
00000340: e6a9 22be 2af8 eebd ee05 73be aaa6 d4be
00000350: da3c 6dbe 81bd 5cbe 205f 01be 140e 85be
00000360: 8ce8 6abe 1ef0 73be 3f89 81be 9b10 7bbe
00000370: fa04 fdbd 9af3 5cbe 8eb6 17be f5a1 88be
00000380: 11e6 36be f80c 5fbe 3c22 49be 2440 a1be
00000390: b43b 8bbd d666 3dbe 3692 05be a306 b5be
000003a0: 1d3f c7bd 8b2f 93bd 4f4f 28be 4ba3 3dbe
000003b0: 6048 1fbe 0ce6 b0be 20d0 3bbe e4ad fcbd
000003c0: cabc 78be cee9 66be 04d8 15be d1a8 a5bd
000003d0: b544 b3bd a27a 13be 49d4 47be 3e0d acbe
000003e0: 07c6 1fbe a2a8 dfbd 77dd 67be 509a cbbd
000003f0: 8010 27be c7db 24be c41a 9bbe e125 4fbe
-0.15409084 -0.24670884 -0.18531354 -0.15220296 -0.2787161 -0.40562367 -0.273549 -0.20397148
-0.19460453 -0.19157624 -0.32387224 -0.41857675 -0.290814 -0.30673566 -0.2832587 -0.2732611
-0.35565338 -0.21263114 -0.081254266 -0.2945958 -0.15230858 -0.1634356 -0.27153912 -0.38695696
-0.2941767 -0.28193846 -0.22467838 -0.3435346 -0.27682447 -0.12997757 -0.084493496 -0.3669103
-0.23407961 -0.36639985 -0.17744991 -0.35393375 -0.12943965 -0.19723627 -0.23860204 -0.16217491
-0.2745837 -0.2762568 -0.11570168 -0.2956302 -0.025048994 -0.30532226 -0.20463331 -0.26813158
-0.11340404 -0.25753683 -0.19512355 -0.17137095 -0.18473026 -0.087893866 -0.015541908 -0.28102466
-0.23996791 -0.38551992 -0.1435795 -0.17168121 -0.15108666 -0.14980222 -0.2669662 -0.12917475
0.09116865 0.12365762 0.13161984 0.15642239 0.11288581 -0.06257409 -0.15137103 0.020768786
0.1840452 -0.04470385 0.08119491 0.10659223 0.009316731 0.05117023 0.039485607 -0.11936912
0.05392343 -0.021877646 0.12446473 0.035320967 -0.045073185 -0.033589847 0.24749812 -0.0026676045
-0.001146119 -0.12802851 0.17892615 0.06973067 0.15684779 0.102812216 0.117497906 0.23524804
0.017067857 -0.04442121 -0.014461169 -0.11580735 0.05602146 0.043108072 0.08508166 -0.041513756
-0.100093246 0.11640605 -0.004950978 0.0671904 0.018696927 0.09898168 0.0585941 0.01697473
-0.09716882 0.14004734 -0.110853516 0.19208243 -0.014126915 -0.007131844 -0.005706827 -0.028572414
0.054474823 0.02379504 0.059096906 0.23489375 0.11541053 0.20471892 0.003933642 0.111298844
-0.012781637 -0.06371759 -0.05245008 0.021117749 0.013181208 0.069334 0.07109663 0.07046091
-0.09797853 0.071978286 0.10635163 0.06390522 -0.031755067 0.0740213 -0.007511948 -0.03325277
-0.0877664 0.07114959 0.11807473 0.05000834 0.00398962 0.07448119 0.014201665 0.034216482
-0.051212057 -0.0416954 0.084411316 -0.0531373 0.0017106343 -0.020371707 0.102564394 -0.10705551
-0.042636395 -0.012346756 -0.059797373 0.02591671 -0.011424157 -0.0017693923 0.17550386 0.08261271
0.12656344 -0.0377248 0.112877294 -0.06311951 0.1588808 0.0068874485 0.04660591 0.039827462
-0.10423152 0.09212536 -0.017642288 -0.11044349 0.0052449573 0.13720302 0.035601232 -0.071119264
-0.032692347 0.021179497 0.05994423 -0.067742854 0.13583216 0.10414618 -0.06739627 0.015767662
-0.16680638 0.014203526 -0.22357954 -0.2641486 -0.27729732 -0.27239904 -0.36366588 -0.22568747
-0.09445548 -0.21020165 -0.082227655 -0.24502964 -0.1918876 -0.07561602 -0.30679995 -0.31838223
-0.15885124 -0.11668427 -0.23732731 -0.41533405 -0.23167744 -0.21556665 -0.12633944 -0.25987303
-0.22940272 -0.23822066 -0.25300023 -0.24518053 -0.12354465 -0.21577302 -0.14815733 -0.26686063
-0.17861201 -0.21782291 -0.19641966 -0.31494248 -0.06798497 -0.1849626 -0.13044056 -0.35356626
-0.09728835 -0.071868025 -0.16436504 -0.18519323 -0.15554953 -0.34550512 -0.18341112 -0.123378545
-0.24290767 -0.22550127 -0.14633185 -0.0808884 -0.08753339 -0.1440225 -0.19514574 -0.33603853
-0.15602885 -0.10920836 -0.22643076 -0.09941542 -0.16314888 -0.16099463 -0.30293858 -0.20229293
