benchmark/models/MLP_checkpoint.pt (torch, 43689 bytes, 5 tensors)

0.weight f4 [128, 13]
000000 5d 81 83 be 1a 58 8d 3e 3d 85 f9 3d e0 cb 82 be
       -0.25684634 0.2760628 0.12183616 -0.2554617
000010 c6 44 07 bd 96 6b a1 3e df d7 31 be bd 6c 8e bd
       -0.03302457 0.31527394 -0.17367505 -0.06954334
000020 ea a2 89 3d e9 f7 9e bd 33 f0 56 3d 6c 1f d6 3d
       0.067205265 -0.07762129 0.052475166 0.10455212
000030 b8 a1 9b be eb bc 8b 3e 2b c0 3d bd e8 40 57 3e
       -0.3039682 0.2729257 -0.046325844 0.21020854
000040 b9 d5 c8 be 49 2f 83 bd a2 60 24 3c 21 88 16 3d
       -0.39225557 -0.06405503 0.010032805 0.036750916
000050 c8 13 97 bd 9f fa 88 be fa e0 12 3e 0c 55 b5 3d
       -0.0737682 -0.2675371 0.14343634 0.08854112
000060 9e 54 86 3e 06 a1 72 3c f9 c3 aa 3e 6d 7e 26 3c
       0.26236433 0.014808899 0.3335264 0.010161978
000070 87 2d f4 3d 6a 00 85 3c 22 70 7c 3d 63 17 d9 3e
       0.11922746 0.016235549 0.061630376 0.42400655
000080 f7 a3 98 3e 99 87 83 be 19 e3 db be cf 93 9b bd
       0.29812595 -0.2568939 -0.429467 -0.075965516
000090 69 33 11 3e 5c 63 ce 3a 41 35 d4 bd f3 8e 53 3d
       0.14179768 0.0015746164 -0.1036172 0.05165
0000a0 6e e3 e8 bc b0 55 24 be 57 21 2c 3c 30 d9 2a 3e
       -0.02842876 -0.16048312 0.010505996 0.16684413
0000b0 e9 69 60 3e 3a 38 02 3e db d5 c8 bd a4 81 87 be
       0.21915402 0.12716761 -0.09806415 -0.26466095
0000c0 e0 40 6f 3e f1 d7 82 be 4d 6d 00 be 8e 44 4c 3d
       0.23364592 -0.25555375 -0.12541695 0.049870066
0000d0 28 8c e8 bd 78 21 84 be 11 62 b6 3e 4b 3c 23 3e
       -0.11354858 -0.25806785 0.35621694 0.15940969
0000e0 78 98 ec bc a7 12 dd bd 45 ae 97 3e cf 18 9e be
       -0.028881297 -0.10794573 0.29625145 -0.30878302
0000f0 40 50 2a bc 08 ae 2d 3d 02 94 13 3d 54 24 6f be
       -0.01039511 0.042402297 0.036029823 -0.23353702
000100 af 5b cf 3e 03 51 2c 3d c3 0c 25 be f1 91 27 3e
       0.40499637 0.042069446 -0.1611815 0.16364266
000110 56 7d 32 be 97 6a 64 3e 7c d4 d6 3d 1b d0 39 3e
       -0.17430624 0.22306286 0.10489747 0.18145792
000120 39 0a 02 3f 1a 3e 2d bd e7 bb 9f be 42 fe bf bb
       0.5079685 -0.042295553 -0.31198046 -0.0058591673
000130 24 7f a8 be 96 1d 09 be 1f 74 0b be cd 85 34 3e
       -0.329095 -0.13390192 -0.13618515 0.17629166
000140 2b 80 b1 3d 05 45 fd be 8a 87 8c bb e1 5e 9f 3e
       0.08667024 -0.4946672 -0.0042886185 0.31127074
000150 fa ab 66 be 76 9b 82 3d 21 fa 61 be dd 09 24 be
       -0.22526541 0.06377308 -0.22068073 -0.16019388
000160 df 9a 1f bd bd 55 9e bd 7b 74 6a be 84 7c 77 be
       -0.038966056 -0.07731197 -0.22895996 -0.24168593
000170 9e 06 0d 3e a6 3f 85 be 1c 92 ff bd 6b 14 b5 3c
       0.13772056 -0.26025122 -0.1247904 0.022104463
000180 2b d5 42 bd f4 e0 84 be 65 7e 80 be af 52 47 3e
       -0.047566574 -0.25952876 -0.2509643 0.19465135
000190 ee b8 ba 3e 35 40 ad 3d a0 b3 8d be 92 68 54 be
       0.36469215 0.08459512 -0.27676105 -0.20743015
0001a0 82 0d 5a 3e 63 3a 5f be 79 1e 06 be 33 59 59 bd
       0.21294215 -0.21799617 -0.13097562 -0.053063583
0001b0 84 a7 e1 3d 22 d3 8d be ce a4 ae bd 73 9b 45 be
       0.11018279 -0.27700144 -0.08527528 -0.1929758
0001c0 30 72 b2 3e 76 8a 0e 3f be 92 8a 3d 0e ce 53 3e
       0.34852743 0.55680025 0.0676627 0.20684072
0001d0 c7 9e 46 be ee ef 9a bd 6c cf 54 3d 38 95 1f 3e
       -0.19396506 -0.07565294 0.051955625 0.15584266
0001e0 b0 e1 91 3a 7b 9c 85 3d ee 51 c1 3d 97 20 b2 3e
       0.0011129882 0.06523987 0.09439455 0.3479049
0001f0 2f e6 af be 87 70 99 3d 4b ab f5 be 2f 7c 14 3e
       -0.34355304 0.07492166 -0.4798225 0.14500497
000200 5a 63 d6 39 ae 0e 0f bc 73 eb bc bd 79 67 ac 3d
       0.00040891283 -0.008731527 -0.09224596 0.08418173
000210 67 15 84 3e 90 ed 82 3e 1a a0 ae 3d 20 a4 60 be
       0.2579758 0.2557187 0.08526631 -0.21937609
000220 fd 60 85 3e b6 60 d5 be ee 1e 91 3e 9b a0 04 bc
       0.2605056 -0.41675347 0.2834391 -0.008094932
000230 7c 7f 1f 3d 61 90 e4 3d f3 7c 2d 3c ee 14 2b 3c
       0.038939938 0.111603506 0.010588872 0.010442002
000240 31 5a cd 3d 02 aa aa be d6 0b 99 be a7 90 15 bd
       0.10026968 -0.3333283 -0.29891843 -0.036514904
000250 b8 b5 fd 3e 8e ac 82 3d 27 1e 7b be 71 d2 57 3e
       0.49552703 0.063805684 -0.24523221 0.21076371
000260 fe a2 42 be 64 b5 36 3d ff af a2 3d 11 6a 90 3d
       -0.19007489 0.04460658 0.07943725 0.070514806
000270 b6 e2 c3 3c 68 1a 3d 3c 22 27 5e 3e c7 15 36 be
       0.023911815 0.01154194 0.21694615 -0.17781745
000280 13 0a 2b 3e a7 15 80 be 59 2e 1e 3d 71 33 32 be
       0.16703062 -0.2501652 0.03861842 -0.17402436
000290 21 fc 74 3d ed 71 db 3d ee e8 8b 3e 97 44 c3 be
       0.05981076 0.10715089 0.2732615 -0.38138267
0002a0 78 f0 ad bc 17 88 21 be 5c 86 5b 3e 0f e8 98 be
       -0.021232828 -0.1577457 0.21437973 -0.29864547
0002b0 76 47 b2 3d 61 6a 52 be d8 70 a7 be d5 2d 75 be
       0.08705036 -0.20548393 -0.3270328 -0.23943265
0002c0 fa de a8 bd d1 9f 91 3e b3 6a 00 3e 72 22 93 3e
       -0.082456544 0.28442243 0.12540703 0.28737217
0002d0 ab fd 81 3d 94 6a 64 bb a8 22 f9 bb 13 df c1 be
       0.063472115 -0.0034853565 -0.0076030083 -0.37865505
0002e0 f0 a2 5e be 01 32 2a be ac 3c 8f bd 9b 4b 98 3e
       -0.21741843 -0.16620637 -0.06993994 0.29745182
0002f0 fd 45 8d 3d 8d 64 85 be e7 00 e7 3e 70 89 8f bd
       0.06898115 -0.26053277 0.45117876 -0.07008636
000300 a8 27 21 bc 5b a8 c4 3d f3 90 1c be 4f a8 19 be
       -0.009836115 0.09602424 -0.15289669 -0.15005611
000310 ce fc cd be 81 57 4d be 68 f6 76 be c8 55 85 3e
       -0.40231937 -0.20052911 -0.24117434 0.26042008
000320 80 39 87 bc c7 e4 5d 3d 21 2f 9b 3d dd f7 ed 3e
       -0.01650691 0.054173257 0.075773485 0.46478167
000330 9f f3 04 3d 55 ad 19 bc 99 0a 5c bd 96 1e 39 3e
       0.032458898 -0.0093797045 -0.053721044 0.18078074
000340 9d e8 64 bb fb 13 47 be 48 af 05 bd 83 41 e3 be
       -0.0034928687 -0.19441216 -0.032637864 -0.4438592
000350 bf 4d ee bc 34 eb 36 3e 3c 67 1f be ae b0 8b bd
       -0.029089807 0.1786316 -0.15566725 -0.06820808
000360 d3 0b ae be 6d d3 65 3e 59 25 67 3e eb 5d 21 3e
       -0.33993396 0.22443934 0.22572841 0.15758483
000370 db e8 dc bd f6 b0 13 3e b8 b9 e9 3c 00 02 8d 3d
       -0.10786601 0.14422974 0.02853094 0.06885147
000380 46 16 ac 3e be af c8 bd 66 2d 5a bd f2 7c 87 bd
       0.33610743 -0.09799145 -0.05326595 -0.06615628
000390 4a 40 a1 3e 61 24 8f be bd be db 3e 35 73 07 bd
       0.3149436 -0.27957442 0.4291896 -0.033068854
0003a0 09 81 d1 3d cb 95 b2 bd c8 6c 58 3e cb 71 a3 3e
       0.1022969 -0.08719977 0.21135247 0.31922755
0003b0 ea 42 f3 bb 88 1a d5 be 41 09 4e bd fc 08 ad bd
       -0.0074237483 -0.41621804 -0.050301794 -0.08448979
0003c0 4c 07 16 3e 1b b2 ac 3e f6 91 da be df 5f 24 be
       0.14651221 0.33729634 -0.42689484 -0.16052197
0003d0 6c 3c 7e 3e c3 88 e7 3d 72 ab 8a bd 53 00 ea 3d
       0.24827737 0.11305382 -0.06770982 0.11425843
0003e0 e7 cb bb 3e 15 84 cd 3d 01 21 fc 3c 74 4f 36 be
       0.36679003 0.10034958 0.030777456 -0.17803746
0003f0 08 95 50 3e 10 a8 47 bd c4 e6 80 be 41 d0 67 3e
       0.20369351 -0.04874426 -0.2517606 0.22638036

0.bias f4 [128]
000000 19 d5 e6 be 36 46 b2 3d 2c c6 be be 18 41 e1 be
       -0.45084456 0.08704798 -0.37260568 -0.43994975
000010 24 ba 5b be d3 ae 45 3c fa a2 46 3e d0 d3 69 3e
       -0.21457726 0.012065607 0.19398108 0.22834706
000020 43 89 aa be b0 6a ef be e6 4f 1e bf b4 69 0c 3d
       -0.33307847 -0.46761084 -0.61840665 0.034280494
000030 90 c7 be 3e f4 ae dc be b4 17 54 3e 2c 1f 1f be
       0.3726163 -0.4310223 0.20712167 -0.15539235
000040 a9 c4 42 3d e6 11 02 be e7 2e b9 bc 3b b4 b5 bb
       0.04755083 -0.1270214 -0.022605373 -0.005545167
000050 94 8f 21 3e a7 63 f1 bd a7 0a 9e be 59 57 91 be
       0.15777427 -0.11786585 -0.30867502 -0.28386953
000060 ae a7 42 3e 9d 1d a7 be 77 07 a4 be e3 cc 1c be
       0.19009277 -0.3263978 -0.32036945 -0.15312533
000070 19 08 9f 3e e9 5c d5 be f6 18 c9 3c 23 63 10 bf
       0.31060866 -0.41672447 0.024548035 -0.5640127
000080 6f bc 60 3e 9f 35 97 be 67 da 63 bc c9 0f 3a be
       0.21946882 -0.29533097 -0.013907052 -0.18170084
000090 57 ed 8f 3e 41 17 17 be 12 22 86 be 10 4d 26 be
       0.28110763 -0.14754964 -0.2619787 -0.16240335
0000a0 e4 df e1 be 1e 6d 48 be fb 6d e2 be 94 cb da 3e
       -0.44116127 -0.19572875 -0.44224533 0.42733443
0000b0 ae 49 da 3d 65 fb 04 bf 39 33 ec be a9 4f 64 be
       0.106585845 -0.519461 -0.4613283 -0.22296013
0000c0 cc 79 e3 be 9a c1 92 be 5b 2f d2 3d c1 ab 6b be
       -0.4442886 -0.2866333 0.102629386 -0.23014738
0000d0 09 e7 cb be c5 fb 97 3d f3 79 fa bd 05 bd 06 be
       -0.39824703 0.07421068 -0.12230291 -0.13158043
0000e0 df f5 55 be 4f 3c 18 be 91 f3 03 be 75 46 aa be
       -0.20894574 -0.14866756 -0.12885882 -0.3325688
0000f0 8b c7 f6 3e 04 f7 fa be 2d 6d 88 3d e7 6e b5 be
       0.48199114 -0.49016583 0.06661449 -0.35436174
000100 d9 5a 96 be 52 26 92 bd d2 51 ba bd 35 e3 68 be
       -0.29366186 -0.07136215 -0.09097637 -0.22742923
000110 3d 26 9a be 88 2c 24 be 1f 0c 55 3e f2 08 2e be
       -0.30107298 -0.16032612 0.20805405 -0.169956
000120 75 6a c4 be 6a 3e c9 be 15 5f 4b bc 24 f5 94 be
       -0.3836247 -0.3930543 -0.012412806 -0.29093277
000130 e6 28 60 3d 95 01 e8 be 8f bc fb be 59 d5 18 be
       0.054726504 -0.45313707 -0.49167296 -0.14925136
000140 6e 50 cb bb 52 ca 18 3e 51 20 1e 3e 04 a2 1f 3d
       -0.0062046563 0.14920929 0.15442015 0.03897287
000150 d2 da 7f bd e2 fc c5 3d bd 13 83 be 2b a1 c2 be
       -0.062464543 0.09667374 -0.25600997 -0.38013586
000160 92 e6 15 bf 12 04 b5 be a2 c6 02 bf 09 45 05 be
       -0.5855495 -0.35354668 -0.5108434 -0.13014616
000170 40 57 57 be 8b 58 c3 be d1 59 c8 be 08 eb 78 be
       -0.21029377 -0.3815349 -0.39131024 -0.24308407
000180 1b d0 e4 be 0f f2 82 be cb 1a de be b1 af 46 bf
       -0.44690022 -0.255753 -0.43379816 -0.77611834
000190 10 42 62 be dc 84 6a be 8e ab 9c 3e 14 7c ab be
       -0.22095513 -0.22902244 0.30599636 -0.33493102
0001a0 76 e3 25 be fd 17 a3 be b7 82 31 3e 49 06 91 3e
       -0.1620005 -0.3185424 0.1733502 0.28325108
0001b0 09 f9 ad 3d 64 cf 9e 3e e2 08 a7 be b4 3e af 3e
       0.08494765 0.310176 -0.32623965 0.34227526
0001c0 72 69 90 be fd 04 92 bd 22 7c ba be 79 4d 74 be
       -0.28205448 -0.07129858 -0.3642283 -0.23857678
0001d0 bc eb c4 bc 3d cf b2 3e af f8 95 3e fc df 91 bd
       -0.024038188 0.34923735 0.29291293 -0.071228
0001e0 ae 2c be 3d 12 3a e1 3d 79 78 f3 be 57 b7 4f bf
       0.09285866 0.10997404 -0.4755285 -0.8113913
0001f0 eb ae 19 3f ec ca 90 bc 9a d5 ac be 57 01 4d be
       0.6003253 -0.017674886 -0.33756715 -0.20020042

3.weight f4 [64, 128]
000000 1d ef 6f bd c2 12 5a bd 99 27 a4 bc c1 9d 11 bd
       -0.058577646 -0.053240545 -0.020038413 -0.035550836
000010 05 3a e3 bb 96 36 1c bc 88 7a 29 bd 0d 80 8e 3c
       -0.0069344067 -0.009534499 -0.04137662 0.017395044
000020 da 24 0c 3c 59 90 92 3d 6a f7 2b bd 61 03 c9 bc
       0.008553708 0.071564384 -0.041984 -0.024537744
000030 80 94 d8 bd f3 de 44 bd cd 8d 15 bc eb 2d a1 bd
       -0.10575199 -0.048064183 -0.009128046 -0.07870086
000040 13 3b 99 bd 5a 2a 3e bc 72 0d 0e bc a5 c6 e1 3b
       -0.07481971 -0.011606777 -0.008670198 0.0068901354
000050 3c e5 4d bd fe 43 b0 bd 43 b7 1a 3d 00 ab 1d bd
       -0.050267443 -0.086067185 0.03777243 -0.038493156
000060 45 76 f7 b9 53 a4 02 bd ec c5 1a bd 8a bc 64 bd
       -0.0004719963 -0.031894993 -0.03778641 -0.055843867
000070 9b 77 c7 bd 83 20 9f ba ac 23 76 3c b1 3e 97 bc
       -0.0973961 -0.0012140427 0.015023153 -0.01846251
000080 71 74 08 be 27 7d f6 bd cc 39 fa 3c 5d 55 69 3b
       -0.13325669 -0.1203559 0.030545138 0.003560386
000090 ba 41 6d 3c a2 03 86 39 65 41 06 bc 88 da e9 bd
       0.014481002 0.00025561178 -0.008194302 -0.11418635
0000a0 33 81 d7 bd a8 29 dd bd 71 7e bf 39 79 02 7c bd
       -0.1052269 -0.10798961 0.00036524565 -0.061525796
0000b0 18 42 94 bd 48 6f b7 bd 6e 0f 92 bd 44 a6 5e 3c
       -0.07239169 -0.08956772 -0.07131849 0.0135894455
0000c0 91 5b 15 bd 57 2a 0d bd ac e5 31 bd a5 df d6 bc
       -0.036464278 -0.034464207 -0.043431923 -0.026229689
0000d0 50 37 b0 bd da 04 22 bd a5 11 d4 3c c7 0f a6 bb
       -0.086043 -0.039555408 0.02588732 -0.005067799
0000e0 73 a4 74 bb ac 2d bd bd ff 00 9f bd 91 4e d7 bc
       -0.0037329465 -0.09237227 -0.07763862 -0.02628258
0000f0 32 c8 28 be df 59 4b bd 69 17 86 bd 90 c4 30 3d
       -0.16482618 -0.049646255 -0.06547434 0.043156207
000100 1a 67 be bc 83 fb 8a bc 34 77 24 bc e5 be f3 bd
       -0.023242522 -0.016965633 -0.010038186 -0.119016446
000110 ee a8 f3 bc 8f 4a 22 bd 53 60 f7 3c 57 a7 93 bd
       -0.029743638 -0.039621886 0.030197298 -0.07209652
000120 6b c5 92 3c 57 3d 1a be 0f 8f 60 bd b8 25 fb bd
       0.017916402 -0.15062462 -0.05482393 -0.12263054
000130 dd b1 c4 bc ec 97 82 bc 62 ac 1f 3d fb 4a 7b bd
       -0.024010593 -0.015941583 0.038982756 -0.061350804
000140 25 33 08 bb cf 9c 90 bc 05 98 ec bc 00 8d 01 be
       -0.0020782438 -0.017652897 -0.028881082 -0.12651443
000150 34 1e bf bc 84 db f3 3c ab 6a 47 3d d8 09 34 bd
       -0.023329832 0.02976776 0.04868571 -0.0439547
000160 5b 8c 88 bb e5 69 80 bd ce c3 65 3d eb bc a5 bd
       -0.0041671223 -0.06270198 0.056094937 -0.08092674
000170 16 16 2e bd 1a 3d f1 3b 69 12 b0 bd 6e 9c 03 bb
       -0.04250153 0.00736202 -0.085972615 -0.0020082253
000180 ca 55 01 3c 9e 07 41 3d 71 a9 89 bd 73 62 ad bd
       0.007893989 0.047126405 -0.067217715 -0.08466043
000190 8e ce e3 bd 6b 15 e7 bd e8 52 c7 bd e4 51 5f bd
       -0.111233816 -0.11283382 -0.0973261 -0.054521456
0001a0 30 4a 8b bd ad fb a5 bd 79 68 9c bc 0f a6 b6 bd
       -0.068012595 -0.08104644 -0.019092785 -0.08918392
0001b0 8d 65 8e bd e9 1f c3 3b c7 a8 89 3d 14 6b a9 bd
       -0.06952963 0.0059547317 0.06721645 -0.08272377
0001c0 d9 43 d4 bc 66 c3 d3 bd 2b 32 67 bb 66 dd 08 3c
       -0.025911259 -0.10340004 -0.0035277705 0.008353567
0001d0 f3 b3 44 3d 46 9d a7 3c 5e 61 7f bc 3b 10 a3 bd
       0.048023175 0.020460736 -0.015587179 -0.0796208
0001e0 ef ba 9f 3c f8 54 7f bd 73 74 8d bd b4 10 8a 3c
       0.019498317 -0.062336892 -0.069069766 0.016853668
0001f0 d6 1d a6 bc 85 ca 99 bd 1b 1b 22 3c 65 05 f5 bc
       -0.020277899 -0.07509331 0.009894158 -0.029909799
000200 98 f4 51 3d 58 c5 cf bc 15 de 22 3d 6c 4b c2 bd
       0.051258653 -0.025362656 0.039762575 -0.09487042
000210 39 47 64 bd 6c 28 0b bd 6e a1 92 bd 39 82 77 bd
       -0.055731986 -0.033974096 -0.071596965 -0.060426924
000220 5c 4b da bd cd 51 b0 bd dd 64 d1 3b 23 d7 9d bd
       -0.10658905 -0.08609352 0.0063901977 -0.0770705
000230 40 d0 db ba 75 2c 9e bc c5 ac 2a be 2c ef 23 bd
       -0.0016770437 -0.019308308 -0.16667469 -0.040023014
000240 eb 85 e9 bc 4f ee 20 bd c8 52 19 be f2 31 0d bd
       -0.02850624 -0.03928977 -0.14972985 -0.03447146
000250 7e 10 f3 bd ca 3e 64 3c 18 bd f3 3c 99 ab aa 3c
       -0.1186838 0.013930986 0.029753253 0.020833777
000260 81 f9 82 3d b9 82 b8 bd cd 4a a1 bd 71 9d 19 bd
       0.06395245 -0.09009308 -0.07875595 -0.037503663
000270 6f d7 e2 bd 6c f2 91 bd 02 02 7e bd 70 fd e1 bd
       -0.11076247 -0.071263164 -0.062013634 -0.110346675
000280 00 cf bb bd 52 3c c4 bd c7 22 4d bd 66 51 68 bd
       -0.091703415 -0.09581818 -0.050081994 -0.056718253
000290 b5 70 f6 bd 7e f9 7c bc 5c fa 89 bd 11 60 af bc
       -0.12033216 -0.015440343 -0.067372054 -0.021408113
0002a0 43 91 6b bd 0d d1 ad bd 0c af 3d 3d fe b8 71 bd
       -0.05751158 -0.08487139 0.046309516 -0.059014313
0002b0 c9 e2 54 3d ab fb 3b bd bc e0 20 bd 47 a5 00 bd
       0.05197409 -0.045894306 -0.039276823 -0.03140762
0002c0 f8 af 0a 3d 79 71 cb bd 60 27 78 bd f7 e6 cc bd
       0.033859223 -0.099337526 -0.060584426 -0.100049905
0002d0 ef 6b ed bc fb 4b 46 bd 35 08 eb 3c d3 df 24 3d
       -0.02898213 -0.048412304 0.028690437 0.040252518
0002e0 83 7d bd bd bc dc 4e bd ad f7 a7 3c 3a 77 3b bd
       -0.09252455 -0.050503477 0.020503843 -0.045768
0002f0 16 2c 11 be 97 18 5e bd ea 8b 0f be 23 b7 d9 bc
       -0.14176974 -0.05422267 -0.14018217 -0.026576584
000300 56 54 04 bc 98 34 e9 3c 11 39 6d 3c 71 95 a5 3d
       -0.008076748 0.028467461 0.014478938 0.08085144
000310 18 90 31 bc 87 aa 9c bd 58 86 2f 3c 9e 27 4b be
       -0.010837577 -0.07649713 0.010713182 -0.19839332
000320 99 cb fc bd 2b be 86 bd 67 52 d1 bd 08 79 fa bc
       -0.12343521 -0.065792404 -0.10220795 -0.03057529
000330 d3 6a 74 3c 57 b5 5d bd b2 14 ef 3c 6b cb da bc
       0.014918047 -0.054128017 0.029184673 -0.026708325
000340 3a da f7 bd da 04 a0 bc 40 0b a0 bd 50 ff d5 bd
       -0.1210217 -0.019533563 -0.07814646 -0.104490876
000350 f5 8c 42 bd 6b ce 82 bd 32 1e 6c bb fa 1e 29 bb
       -0.04749771 -0.06387027 -0.003602874 -0.0025805817
000360 92 aa 39 3c 07 18 6a bb c7 a7 e8 bd f3 7a 51 3d
       0.011332171 -0.0035719888 -0.11360126 0.051142644
000370 50 87 5a bd a9 92 cb bd 75 59 f4 3a 5f e4 a5 bd
       -0.0533517 -0.099400826 0.0018642383 -0.08100199
000380 5a 6b c9 bd 0e 5c a9 bd 93 7a b6 bc 2a 1b 44 bd
       -0.09834929 -0.08269511 -0.022275245 -0.04787747
000390 8b 1c 65 bc c5 01 d0 3a 8e 5d 3d bd 81 99 b8 bd
       -0.013983856 0.0015869668 -0.0462318 -0.090136535
0003a0 2c fb e1 3c 8b 16 eb bb 10 31 b3 3b 57 05 27 bd
       0.027585588 -0.007174318 0.005468495 -0.040776577
0003b0 21 94 1d bd 0c f0 c8 bd 38 09 87 bc 00 46 17 bd
       -0.038471345 -0.0981141 -0.016483888 -0.03693199
0003c0 64 af 22 be 1c 5d d2 bd 5f aa 6d bd 3d a6 65 bd
       -0.15887219 -0.102716655 -0.058023807 -0.05606674
0003d0 25 4e 46 bd c1 c1 1d be 2a 1e 08 bc bf 3a 83 bd
       -0.04841437 -0.15405942 -0.008307973 -0.06407689
0003e0 f0 24 5f bc 7a 91 9d bc 99 7e 79 3c fd 92 a7 bd
       -0.013619646 -0.019234408 0.015227937 -0.08182333
0003f0 4a 83 76 bd 0c 0d cf bd 0c 07 a5 bd 46 72 f5 bb
       -0.0601838 -0.1010991 -0.08057985 -0.007490429

3.bias f4 [64]
000000 f2 0b 85 bd 04 a4 cf bc 92 ad 85 3b ce 69 90 bd
       -0.06496419 -0.025346763 0.004079529 -0.07051431
000010 2d 0d 03 be d9 18 04 be 1f b5 98 3d d7 c5 3a be
       -0.12797995 -0.12900104 0.07456421 -0.18239532
000020 86 f9 80 3d 87 e6 e2 bd c7 1c 38 bd 7b 83 96 3d
       0.06297593 -0.11079126 -0.04494932 0.07349297
000030 ee 08 b8 bd 32 bc 21 be df c2 4f bd 54 f5 3b 3d
       -0.08986078 -0.15794447 -0.050722953 0.04588826
000040 5c db f9 3d 09 47 ad 3d cd ba 07 3e 5c fd f1 bd
       0.122000426 0.084608145 0.13254853 -0.118159026
000050 d1 b6 50 be ab c3 f2 bd 72 82 64 bd 1c d3 3a 3e
       -0.20382239 -0.11853727 -0.055788465 0.18244594
000060 ce c5 94 b8 74 b2 01 be 4d 2b b9 bd 8a 96 b4 bd
       -7.094034e-05 -0.1266573 -0.09041462 -0.088177755
000070 dc 01 10 be a4 d1 07 3d 8d b8 ca 3d 79 01 b4 bd
       -0.1406321 0.033158913 0.098984815 -0.087893434
000080 81 eb 6d 3d b8 0c 11 3e e8 3a 15 be aa b6 c4 bd
       0.058085922 0.14165008 -0.14573252 -0.09605153
000090 bb 26 f4 3c 13 89 a1 3d 13 13 bb bd 06 07 ae bd
       0.029803624 0.07887473 -0.091344975 -0.08497433
0000a0 c0 cc a9 bd 82 c8 d3 bc 11 81 82 bd d5 57 d8 bc
       -0.08291006 -0.025852446 -0.06372274 -0.02640907
0000b0 ad cc 1c bd 0b 00 f2 bc 26 92 24 3e a1 76 17 bd
       -0.03828113 -0.029541036 0.16071376 -0.036978368
0000c0 63 25 90 bd c6 b4 21 be 38 06 33 bd fc d7 f7 3d
       -0.07038381 -0.15791616 -0.043707103 0.121017426
0000d0 ce 2e 0f bd f1 36 7c be 92 03 b6 bc 90 ce a6 bd
       -0.034956746 -0.24630333 -0.0222185 -0.081448674
0000e0 a0 07 df 3d aa 3a 06 be ed 54 59 be 0e 4b 03 bd
       0.10890126 -0.13108316 -0.21223803 -0.032054
0000f0 1a 30 9b bd ff 9d 30 3e 5e fa d6 3d e6 d8 37 3c
       -0.07577534 0.1724777 0.104969725 0.011221146

6.weight f4 [1, 64]
000000 c1 c9 f5 bc b5 94 01 3d 43 90 7c 3c 36 73 d4 3c
       -0.03000343 0.03163596 0.015415254 0.025933843
000010 62 19 79 3d bd d8 b2 3d 94 8d e5 bc a7 0d 1d 3c
       0.060815223 0.08732746 -0.028021611 0.0095857745
000020 d2 4a d2 3d 34 d6 93 3d 27 8a 89 3d 04 d6 06 bd
       0.10268177 0.072185904 0.067158036 -0.032918945
000030 af 6e 80 bd 17 97 68 bd 6a 4a ff 3c 0a 66 d9 bd
       -0.06271111 -0.056784716 0.031163413 -0.106151655
000040 e3 6f dc bd bc c4 00 3d d7 d0 7e 3d 9f 73 78 3d
       -0.10763528 0.03143762 0.062210884 0.06065714
000050 fb ef 8e bd 4b e2 d0 bc 66 bd 09 3d ef 34 57 3d
       -0.069793664 -0.02549853 0.03362789 0.052540716
000060 37 41 c0 3c b2 22 a8 3c 20 0c 00 3e 85 c8 48 bb
       0.023468597 0.020524357 0.12504625 -0.0030637097
000070 1e a3 87 bd 41 4f 42 3c 50 76 2c be 15 f0 c6 3d
       -0.06622909 0.011859716 -0.16842008 0.09713761
000080 77 b1 07 3d 70 1b 16 3d 77 46 82 bd 93 f0 bf 3c
       0.033128228 0.03664726 -0.06361096 0.023430144
000090 99 30 9e 3c fc ff f1 3d f7 ca 94 3d 8c d1 33 bd
       0.019310283 0.11816403 0.07265275 -0.04390101
0000a0 69 e5 1b 3c 0e 5b cf 3d 33 2c ce bc 94 f9 e5 3d
       0.009515145 0.10124789 -0.02516756 0.11229244
0000b0 b5 9e a5 3c 6b a9 76 3c 21 aa de 3c a6 4b 22 3d
       0.020217279 0.015055041 0.027180733 0.039622925
0000c0 d4 f3 a4 3d b1 44 b7 bd 02 83 d3 3d 19 2c 83 3d
       0.08054319 -0.08948649 0.10327722 0.06404895
0000d0 0a 99 0f bd b6 0e 4c bd d3 85 4b 3c 87 be 79 bc
       -0.03505806 -0.049818717 0.012422043 -0.015243179
0000e0 b9 b5 96 bd 0c cb b7 3c b5 e6 8b 3d 3e d7 54 bb
       -0.073588796 0.022435687 0.06831113 -0.0032476927
0000f0 02 72 46 bc 74 21 9e bc 18 02 85 3c b5 16 27 3d
       -0.0121121425 -0.019303061 0.01623635 0.04079314
